data/TextCNN.pt (torch_old, 167315 bytes, 8 tensors)

convs.0.weight f4 [10, 1, 2, 400]
0	0xbcd1104a	-0.025520463
1	0xbd955e44	-0.0729337
2	0xbd854236	-0.06506769
3	0xbd729925	-0.05922808
4	0x3c1ab3d7	0.009442291
5	0xbb0e2d41	-0.0021694454
6	0xbbb6b18e	-0.0055753654
7	0x3bff7a03	0.0077965274
8	0x3d095f8a	0.03353838
9	0xbd274b83	-0.040843498
10	0xbcb51550	-0.02210489
11	0x3cf7c1ef	0.030243842
12	0x3ca5e724	0.020251818
13	0xbcd67a7f	-0.026181458
14	0x3bd1db4c	0.006404316
15	0xbcfe8202	-0.031067852
16	0x3d2c637b	0.04208706
17	0x3d1952a9	0.037432346
18	0x3d982b46	0.07430129
19	0x3d8079d4	0.06273237
20	0x3d3af54f	0.0456441
21	0xbd23a2b0	-0.039950073
22	0x3d63cba2	0.05561412
23	0x3c4b9216	0.012424966
24	0xbd8e26a1	-0.06940962
25	0x3d723d03	0.059140217
26	0x3c90c084	0.017669924
27	0x3d811ff2	0.06304921
28	0x3d0a8512	0.033818312
29	0x3b555eb2	0.0032557664
30	0xbd50218e	-0.05081325
31	0xbb856272	-0.0040705735
32	0x3d97a17a	0.07403846
33	0xbce4fdbb	-0.02795302
34	0xbcb7c5e2	-0.022433225
35	0xbd427616	-0.047475897
36	0xbc864067	-0.016388131
37	0xbd879028	-0.066192925
38	0x3cdab3ff	0.026697157
39	0x3b82fb3c	0.0039972346
40	0xbd13ec82	-0.036114223
41	0x3c9523c5	0.018205533
42	0xbca0ff36	-0.019652944
43	0x3d788d35	0.06068154
44	0xbcf477b3	-0.029842233
45	0x3d8d678a	0.06904514
46	0x3d8f05fb	0.069835626
47	0x3a9c7617	0.0011937049
48	0x3d3a21f7	0.045442548
49	0xbcca4ffd	-0.024696345
50	0x3c268155	0.010162671
51	0xbd4688b7	-0.048470225
52	0x3bd41308	0.0064719953
53	0xbd3106a8	-0.04321924
54	0x3c2662a2	0.010155352
55	0x3aeaaddb	0.0017904596
56	0x3c566f0c	0.013087999
57	0x3d43a576	0.047765218
58	0x3d86164b	0.06547221
59	0xbcb2905c	-0.021797352
60	0xbd529a2e	-0.05141657
61	0x3b477f1e	0.0030440758
62	0xbc9f2811	-0.019428285
63	0x39636cf1	0.00021688991
64	0x3b0f61a6	0.0021878271
65	0x3d012072	0.031525083
66	0xbc825e25	-0.015914032
67	0x3ca7c0c4	0.02047766
68	0xbc07027c	-0.008240338
69	0xbd31d002	-0.043411262
70	0xbd91d597	-0.07120817
71	0xbd3a5a1f	-0.045496102
72	0x3c620e7d	0.0137974
73	0xbbc96529	-0.0061460924
74	0x3d87ed1c	0.06637022
75	0xbc993f69	-0.018706994
76	0xbd321cb3	-0.0434844
77	0x3d84a5f7	0.06476968
78	0xbcf78a84	-0.030217417
79	0x3d071e87	0.032988098
80	0x3c8668af	0.016407339
81	0x3c655f91	0.013999836
82	0x3d55ceb2	0.052199073
83	0x3bee6afd	0.0072759376
84	0xbaa9a380	-0.0012942404
85	0xbd81d70c	-0.06339845
86	0x3d94d02d	0.07266269
87	0x3cbcc95b	0.023045233
88	0xbd95f0d3	-0.07321324
89	0x3d5dafe9	0.05412284
90	0x3c2fa7f1	0.010721193
91	0x3b67e5db	0.0035384807
92	0x3d5b5dbc	0.05355619
93	0xbc8cf76e	-0.017207827
94	0xbd2a1eb8	-0.041533202
95	0x3bd5b86c	0.006522229
96	0x3d33d458	0.04390368
97	0x3b3a9618	0.002847081
98	0xbd03f3ab	-0.0322148
99	0x3c477280	0.012173295
100	0x3d00d8c2	0.031456716
101	0xbbcf0fd0	-0.0063190237
102	0x3c78899a	0.0151695255
103	0x3d2f443d	0.042789686
104	0xbd32e829	-0.043678436
105	0xbbd80a9a	-0.0065930607
106	0xbcce0e5c	-0.025153331
107	0xbc885a5f	-0.016644655
108	0xbca0445e	-0.01956385
109	0xbd4b3fa2	-0.04962123
110	0xbc86b65b	-0.016444376
111	0x3badb341	0.0053009097
112	0xbc9e60c8	-0.019333258
113	0x3d13c875	0.036079843
114	0x3c872c62	0.016500656
115	0x3d7e0f42	0.06202627
116	0xbca2adf9	-0.019858347
117	0xbc2a92a8	-0.010410942
118	0x3cbcc685	0.02304388
119	0xbd822080	-0.06353855
120	0x3bf3edbc	0.0074441116
121	0xbafe2313	-0.0019389115
122	0xbd6ee948	-0.058327943
123	0x3c546a51	0.012964801
124	0xbcaadec9	-0.020858185
125	0x3cffefe0	0.031242311
126	0x3ce6770c	0.028132938
127	0x3d000235	0.031252105
128	0x3d7e0fe7	0.062026884
129	0xbc9adcf0	-0.01890418
130	0x3c9d8c94	0.019232072
131	0x3cb3d488	0.021951929
132	0x3c885776	0.016643267
133	0xbcba7db1	-0.022765012
134	0xbdabd512	-0.08390249
135	0x3c1d0910	0.00958468
136	0xbcfcfb07	-0.030881418
137	0xbbc8f68e	-0.0061329072
138	0x3ce37ae8	0.027768567
139	0x3d23cf6d	0.03999274
140	0xbacc49b0	-0.0015585925
141	0xbcecb032	-0.02889261
142	0x3c03d77f	0.008046984
143	0x3da0f899	0.07859916
144	0x3d4e7399	0.05040321
145	0x3c8fcc62	0.017553512
146	0x3c480135	0.012207319
147	0x3c2ba0af	0.010475322
148	0x3be77c98	0.0070644133
149	0xbd635be5	-0.05550756
150	0xbd0b2848	-0.033973962
151	0xbcee39e8	-0.029080346
152	0x3c5b63c5	0.013390486
153	0x3c5964f2	0.013268696
154	0xbb320778	-0.0027165096
155	0xbd9a2b85	-0.07527832
156	0xbb2c63a0	-0.0026304498
157	0x3d86bab0	0.065785766
158	0xbcb8e387	-0.022569431
159	0xbd42f9ee	-0.047601633
160	0xbd4932bb	-0.049120646
161	0x3c90687c	0.017627947
162	0xbd14ef50	-0.03636104
163	0xbd5304b3	-0.051518153
164	0x3d57e157	0.052705135
165	0xbd69e395	-0.057101805
166	0xbd662093	-0.05618341
167	0xbc91d1dc	-0.017800264
168	0xbd13df16	-0.036101423
169	0x3d596d61	0.053082827
170	0xbd1f3f56	-0.03887876
171	0xbc1a9816	-0.009435674
172	0xbd3f4f88	-0.046706706
173	0xbce85ed3	-0.028365528
174	0xbd111b37	-0.035426345
175	0xbb0b51c6	-0.0021258458
176	0x3cd8a797	0.0264471
177	0xbac63e4c	-0.0015124767
178	0x3da0e48b	0.07856091
179	0xbc55627b	-0.013023968
180	0x3d13f41f	0.036121484
181	0xbc5cbfed	-0.013473493
182	0xbd8c76a3	-0.06858566
183	0xbd3907ad	-0.045173336
184	0x3bf8b935	0.007590438
185	0xbd95a97c	-0.07307717
186	0x3d230411	0.0397988
187	0xbd85b1bd	-0.065280415
188	0x3cdb2c9c	0.02675467
189	0x3d054b89	0.03254274
190	0x3cc94577	0.024569256
191	0xbc481164	-0.0122111775
192	0xbd581b95	-0.05276068
193	0xbc8df4f3	-0.017328715
194	0xbd789045	-0.06068446
195	0xbd79663a	-0.060888506
196	0x3d36c10a	0.04461769
197	0xbd18fe65	-0.037351985
198	0xbcb919c6	-0.022595298
199	0x3d4a2e18	0.049360365
200	0x3d50b49f	0.050953504
201	0xbd4ca84f	-0.0499652
202	0xbd0f6f15	-0.035018045
203	0xbd007ba4	-0.031367913
204	0x3d7df830	0.06200427
205	0x3cb47fb9	0.02203356
206	0x3d3bc265	0.045839686
207	0xbbccefac	-0.006254157
208	0xbbeff74d	-0.0073231817
209	0x3d6cf7d2	0.057853527
210	0x3d3f57de	0.046714656
211	0xbc636808	-0.013879783
212	0xbd429e01	-0.047513966
213	0x3d880692	0.06641878
214	0xbd2cf35c	-0.042224273
215	0x3d4fffc2	0.05078102
216	0xbd943c2f	-0.072380416
217	0x3c728272	0.014801608
218	0x3d054530	0.032536685
219	0xbc15e7ec	-0.009149533
220	0x3d132333	0.03592224
221	0x3cb5d8ad	0.022198046
222	0x3d1e49f1	0.038644735
223	0xbd839b08	-0.06426054
224	0x3c3ad3b0	0.011403009
225	0xbcb44d1a	-0.022009421
226	0x3b7ecad7	0.0038878226
227	0x3c46b6e5	0.012128566
228	0xbd45f702	-0.048331268
229	0x3d7a4180	0.061097622
230	0x3be6642a	0.0070309835
231	0x3bea291a	0.007146013
232	0xbd8eeb41	-0.06978465
233	0xbd04f0d2	-0.032456227
234	0x3d4bae58	0.049726814
235	0x3d5ec73b	0.05438922
236	0x3c0d6194	0.0086292215
237	0x3d05d0ed	0.03266995
238	0xbc6d7414	-0.014493007
239	0x3c8f8c2b	0.017522892
240	0xbd383105	-0.044968624
241	0x3d0c33f6	0.03422924
242	0xbd21dfa5	-0.039519925
243	0x3d472289	0.04861692
244	0x3d7db02a	0.06193558
245	0xbc90e1d8	-0.017685816
246	0x3c5b3303	0.013378861
247	0x3d0afaa2	0.03393043
248	0xbc80dbe3	-0.01572985
249	0xbc80b6fa	-0.01571225
250	0x3cac0bfc	0.021001808
251	0xbcbf7504	-0.023371227
252	0x3d678abc	0.05652879
253	0x3d4c8c74	0.049938634
254	0x3d897453	0.0671164
255	0x3d09d080	0.033646107

convs.0.bias f4 [10]
0	0xbd121cfb	-0.03567217
1	0xbd7ed178	-0.062211484
2	0xbd9ef9c0	-0.0776248
3	0xbcb47c74	-0.022032
4	0xbd8b0efd	-0.06789968
5	0xbcb0ec66	-0.021597099
6	0xbd87046d	-0.06592641
7	0x3c964d70	0.018347472
8	0xbd1b89f6	-0.037973367
9	0xbd45642c	-0.048191234

convs.1.weight f4 [10, 1, 3, 400]
0	0xbc2d0fc8	-0.010562845
1	0x3cde134f	0.027108816
2	0xbd5abfe1	-0.053405646
3	0xbc971ada	-0.018445421
4	0x3c79eb5d	0.015253869
5	0x3d6a7bc1	0.057246927
6	0xbd12bec4	-0.03582646
7	0x3c3835ae	0.011243267
8	0xbd3aa8fa	-0.045571305
9	0x3d0355ee	0.03206437
10	0x3d6e0f54	0.058120087
11	0x3d2c7f40	0.042113543
12	0xbcb8a430	-0.022539228
13	0xbca70b0c	-0.02039101
14	0x3d3d292e	0.04618185
15	0xbc11af23	-0.0088918535
16	0x3c76b4f5	0.015057792
17	0x3d2bc16a	0.0419325
18	0x3d6e49a4	0.058175698
19	0xbcb97349	-0.02263798
20	0x3bc26c95	0.005933354
21	0xbd572b05	-0.05253126
22	0xbc804fed	-0.015663112
23	0xbcf38ac2	-0.02972925
24	0x3d398c8c	0.04530005
25	0x3ce3b740	0.027797341
26	0x3c2c3aac	0.010512035
27	0x3c5d6611	0.013513104
28	0xbc84f529	-0.016230183
29	0x3cb7affb	0.022422781
30	0x3d166908	0.03672126
31	0x3caa8569	0.020815568
32	0x3c125d25	0.00893334
33	0xbc78764d	-0.015164924
34	0xbd81176d	-0.06303296
35	0xbd345b05	-0.044032115
36	0xbd5810dc	-0.052750453
37	0x3ce575c6	0.02801026
38	0xbd60baa7	-0.054865506
39	0xbd45a06e	-0.0482487
40	0xbb66937b	-0.003518312
41	0xbcb54c50	-0.022131115
42	0x3cd18d26	0.02558
43	0xbcae01da	-0.021241117
44	0xbd6402c6	-0.055666707
45	0x3c01a465	0.00791273
46	0x3d1fb086	0.038986705
47	0xbd378269	-0.044802103
48	0x3d2a4171	0.041566316
49	0xbd814d78	-0.06313604
50	0x3cf274d5	0.029596725
51	0x3d1205e4	0.03565015
52	0xbd997cfd	-0.07494543
53	0xbc90ecf2	-0.01769111
54	0x3d0674e4	0.03282632
55	0xbc628b23	-0.013827118
56	0xbd2fcaf5	-0.042918164
57	0xb92c5031	-0.00016433072
58	0x3b1d439e	0.0023996602
59	0x3ba9eefe	0.005185961
60	0x3d2e5bd5	0.042568047
61	0x3c3cc1c9	0.011520811
62	0x3c852bb9	0.0162562
63	0x3c269930	0.010168359
64	0x3d3dbfd6	0.046325527
65	0xba9245ce	-0.001115972
66	0xbb2b48a2	-0.0026135822
67	0x3ccdbc2c	0.025114141
68	0x3d778da4	0.060437813
69	0x3c80634b	0.015672347
70	0x3d2a5e67	0.041593935
71	0xbc35ccde	-0.011096207
72	0xbd5deba1	-0.05417979
73	0x3d49d938	0.04927942
74	0x3cd96642	0.026538018
75	0xbc3c13be	-0.011479316
76	0xbc853ce5	-0.016264388
77	0x3c9bd520	0.019022524
78	0xbd37440a	-0.04474262
79	0x3b6bb04e	0.003596324
80	0x3c1de38b	0.00963677
81	0xbc23ef2b	-0.010005753
82	0x3cd5e25d	0.026108915
83	0x3d80cf0b	0.0628949
84	0x3d1af7aa	0.037833847
85	0x3c409c14	0.011755962
86	0x3c6ceb1f	0.014460354
87	0x3d24c4ba	0.040226676
88	0xbceef841	-0.029171111
89	0xba4a24d8	-0.00077111786
90	0x3cf5d990	0.030010968
91	0xbd327528	-0.04356876
92	0x3d46f3eb	0.048572462
93	0x3cea9861	0.028637113
94	0xbcd25cf6	-0.025679093
95	0xbd8a2e16	-0.067470714
96	0x3d92a008	0.0715943
97	0xbb842326	-0.0040325103
98	0x3d222c9b	0.03959332
99	0xbd20dbff	-0.039272305
100	0x3c9323a4	0.01796133
101	0xbcbee852	-0.023304138
102	0x3c57e65f	0.013177483
103	0x3c2e4a9b	0.0106379045
104	0x3d62a03f	0.055328604
105	0xbd181956	-0.037133537
106	0x3b84402a	0.0040359693
107	0x3cd8da1e	0.026471194
108	0x3cf8ed57	0.03038661
109	0x3aa652c5	0.0012689462
110	0x3c0af258	0.008480631
111	0x3d2e3d3a	0.04253886
112	0xbc7545da	-0.014970267
113	0x3d13351e	0.03593933
114	0xbcd6441e	-0.026155528
115	0x3c85a00b	0.016311666
116	0xba5bf09f	-0.00083900423
117	0x3d41eb3b	0.047343474
118	0xbc5ebbf1	-0.013594613
119	0xbc7df594	-0.015500445
120	0x3c63bace	0.013899518
121	0x3d10174a	0.03517846
122	0xbd5e533d	-0.0542786
123	0xbd27cbe6	-0.040965937
124	0x3d13fc36	0.0361292
125	0xbd3dac1e	-0.046306722
126	0x3d05bf77	0.0326533
127	0xbbd35a3b	-0.0064499653
128	0xbc9dea85	-0.019276867
129	0xbd034f8d	-0.032058287
130	0x3cf38ea0	0.029731095
131	0xbc751d67	-0.014960623
132	0x3d050923	0.032479417
133	0xbd0a9784	-0.033835903
134	0xbd734fd5	-0.059402306
135	0x3b17cbcf	0.002316225
136	0xbb702375	-0.0036642228
137	0x3c6f402b	0.014602701
138	0x3c8a2ef4	0.016868092
139	0xbbb82eee	-0.005620829
140	0xbc9183da	-0.017763067
141	0xbd317b21	-0.043330316
142	0xbd135a6a	-0.035974897
143	0x3d5bb82c	0.053642437
144	0xbc4d8124	-0.012542997
145	0xbca98c9c	-0.02069693
146	0xbd385014	-0.044998243
147	0xb80c7479	-3.3487075e-05
148	0xbcb9d0de	-0.022682603
149	0x3d3d2de3	0.04618634
150	0x3ce65985	0.028118858
151	0x3d30f8d6	0.04320606
152	0x3d1fd5a4	0.039022103
153	0x3d81ba47	0.06334358
154	0xbd35feaa	-0.04443232
155	0xbd2aa439	-0.04166052
156	0xbd09db46	-0.03365638
157	0x3c854589	0.016268509
158	0x3d3c4746	0.04596641
159	0xbd691d8c	-0.056912944
160	0x3c397f3f	0.011321842
161	0xbd39779c	-0.045280084
162	0x3d2191a5	0.039445538
163	0x3d083ac4	0.03325917
164	0x3cb85b0a	0.022504348
165	0x3d5080a6	0.05090394
166	0x39d6a2a6	0.00040938443
167	0xbca6e672	-0.020373557
168	0xbce67550	-0.02813211
169	0x3c8d4927	0.017246796
170	0xbccc9609	-0.024973886
171	0x3c3d0081	0.011535765
172	0x3d3b8a19	0.045785997
173	0xbb9d6c4f	-0.004804171
174	0xbc254082	-0.010086181
175	0x3d4dd714	0.050253943
176	0xbcb25801	-0.02177048
177	0x3d3b6cfa	0.045758225
178	0xbd230dfe	-0.039808266
179	0x3cd30945	0.025761256
180	0xbd7359e9	-0.059411917
181	0x3a0a123a	0.0005266998
182	0xbd67514a	-0.056474008
183	0x3c92cdd3	0.01792041
184	0x3b44911d	0.002999372
185	0xbb54f22b	-0.0032492976
186	0x3d461a64	0.04836501
187	0x3c66b344	0.014080826
188	0xbc804159	-0.01565616
189	0x3cdd215f	0.026993452
190	0x3c4c5dbd	0.012473521
191	0xbd1f2b58	-0.038859695
192	0x3c8f7149	0.017510073
193	0x3c80e74f	0.015735297
194	0x3cb85dc6	0.022505652
195	0xbb15fa8a	-0.0022884929
196	0x3cb6ae71	0.022299977
197	0xbd961837	-0.07328837
198	0x3c4d3d0a	0.01252676
199	0xbcac5344	-0.021035798
200	0xbd0aefa8	-0.03391996
201	0x3ca13afd	0.019681448
202	0x3c8e7413	0.017389333
203	0xbd269a2b	-0.04067437
204	0xbd17dd7f	-0.03707647
205	0xbb3e1e3e	-0.0029009725
206	0x3d130e8e	0.035902552
207	0xbca0a739	-0.019610988
208	0x3c1ba645	0.009500091
209	0x3d08e089	0.03341726
210	0x3d6df599	0.05809555
211	0xbd8138e1	-0.06309677
212	0x3c459c0b	0.012061129
213	0x3b67248f	0.0035269593
214	0x3d40e975	0.047097642
215	0xbcb76a16	-0.022389453
216	0x3b392793	0.0028252348
217	0xbd12de7e	-0.035856716
218	0xbc38d249	-0.011280605
219	0x3ccb8904	0.024845608
220	0xbc4a06f2	-0.012330757
221	0x3d4a4c62	0.04938925
222	0xbd1b56b6	-0.03792449
223	0xbceb4e31	-0.028723808
224	0xbcfa6682	-0.030566458
225	0x3b8ac49c	0.0042348634
226	0x3c84ce23	0.016211575
227	0xbcca297d	-0.024677986
228	0xbb4b190a	-0.0030990266
229	0xbd331cec	-0.043728754
230	0x3c8d9342	0.017282132
231	0x3ce9663b	0.02849113
232	0xbc496489	-0.012292036
233	0xbc3faa52	-0.011698322
234	0x3a8283b8	0.0009957468
235	0xbcd049c6	-0.025425803
236	0xbcd7011b	-0.026245644
237	0xbcdb9d4a	-0.0268084
238	0xbd6b2205	-0.05740549
239	0x3cf59199	0.029976653
240	0x3ce250fc	0.027626507
241	0xba0a2e99	-0.0005271226
242	0x3c69b858	0.014265142
243	0x3b2d62cb	0.002645659
244	0xbc904ca5	-0.017614672
245	0x3d4bc0ff	0.049744602
246	0xbd05ffec	-0.03271477
247	0xbc2d17ac	-0.010564726
248	0x3c32dd9c	0.010917094
249	0x3af8be5b	0.0018977629
250	0x3cdaeb9d	0.026723677
251	0x3c491ca6	0.012274897
252	0x3d16fcc6	0.036862157
253	0xbd0d6c81	-0.034527306
254	0x3cd2fb07	0.025754465
255	0xbc0d38d7	-0.008619509

convs.1.bias f4 [10]
0	0xbd1ee003	-0.038787853
1	0x3d46f85e	0.048576705
2	0xbd047866	-0.032341383
3	0xbd6a915e	-0.05726754
4	0x3c8346b4	0.016024925
5	0xbcb311c7	-0.021859063
6	0xbc82fbd5	-0.015989223
7	0xbaff328d	-0.0019470021
8	0xbc8de22a	-0.017319757
9	0xbd88d4d5	-0.066812195

convs.2.weight f4 [10, 1, 5, 400]
0	0x3d620781	0.055182938
1	0xbd00aac2	-0.031412847
2	0xbd2d03ba	-0.042239882
3	0x3cad5c91	0.021162303
4	0xbd118926	-0.035531186
5	0x3d650802	0.05591584
6	0xbd61463c	-0.05499862
7	0x3d1f653d	0.038914908
8	0xbd0b6144	-0.034028307
9	0x3c484291	0.012222902
10	0xbcd806c6	-0.026370417
11	0x3bef8f4a	0.0073107826
12	0x3d0998fd	0.033593167
13	0x3c6771a8	0.014126219
14	0x3d512546	0.051060937
15	0xbccd2588	-0.02504231
16	0xbd093733	-0.033499908
17	0xbca52740	-0.020160317
18	0xbcdab4e9	-0.026697593
19	0x3d31d3bc	0.043414816
20	0x3ce012fa	0.027352799
21	0x3cae34b5	0.021265367
22	0xbd355b6d	-0.044276644
23	0xbd3afb78	-0.045649976
24	0xbccfb3b2	-0.02535424
25	0xbca63d57	-0.020292921
26	0xbc993b4d	-0.018705035
27	0xbc85d117	-0.016335053
28	0x3cbe4fc6	0.023231398
29	0x3d37b105	0.044846553
30	0xbd1953ab	-0.037433308
31	0x3c84ed8b	0.01622655
32	0x3d3f7d08	0.0467501
33	0x3d17d228	0.037065655
34	0xbce5ef02	-0.02806807
35	0x3cf8d5e1	0.030375423
36	0x3cc1a566	0.023638438
37	0xbd233a7c	-0.039850697
38	0xbc779809	-0.015111932
39	0xbd283737	-0.041068282
40	0xbd08b33f	-0.033374067
41	0x3b2b2924	0.002611705
42	0xbce3d5e9	-0.027811961
43	0x3ccd48bc	0.025059097
44	0x3d5eb51e	0.054371946
45	0xba516931	-0.0007988392
46	0x3d134881	0.035957817
47	0xbcc83502	-0.024439339
48	0x3d5361f7	0.0516071
49	0x3b66acbe	0.0035198177
50	0x3d40cc85	0.047070045
51	0x3d5a6b9c	0.05332528
52	0xbcc85269	-0.024453359
53	0xbcbb567f	-0.022868393
54	0x3d162bf6	0.03666302
55	0xbd257938	-0.040398806
56	0x3d2a43cc	0.041568562
57	0x3d407a7c	0.04699181
58	0x3d1c9ea8	0.038237244
59	0xbd137de1	-0.03600872
60	0x3d7cf5fa	0.06175802
61	0xbd72baf2	-0.059260316
62	0x3d6b22b9	0.05740616
63	0xba8e2116	-0.0010843601
64	0x3d299203	0.041399013
65	0x3ceadf2a	0.028670866
66	0xbd2d6277	-0.04233023
67	0xbc083c25	-0.008315121
68	0xbb8a45cd	-0.0042197467
69	0x3d000ed0	0.031264126
70	0xbba397d4	-0.0049924646
71	0xbd65e8e9	-0.056130324
72	0x3d049b57	0.032374706
73	0x3d2b1677	0.04176947
74	0x3ca7649b	0.020433715
75	0xbcf750fb	-0.030189982
76	0xbd650e1a	-0.05592165
77	0xbbff59e9	-0.0077927005
78	0x3d4d8789	0.050178085
79	0xbc0d1e05	-0.008613114
80	0x3d65674b	0.05600671
81	0x3ca03c1a	0.019559909
82	0x3cd0aaa3	0.02547199
83	0xbd7adf35	-0.061248023
84	0xbd6d4422	-0.057926305
85	0xbd2e16eb	-0.042502325
86	0xbb9e02a2	-0.004822091
87	0x3d090675	0.033453424
88	0xbce64bd5	-0.028112331
89	0x3c8d1e35	0.017226318
90	0x3b586d5f	0.0033024175
91	0x3ce3ec58	0.027822658
92	0x3d70334b	0.058642667
93	0x3d34984b	0.04409055
94	0x3d5b5a4c	0.05355291
95	0x3cad50c5	0.021156678
96	0x3c645009	0.0139350975
97	0xbc927818	-0.01787953
98	0x3d22084f	0.039558705
99	0x3d64cae4	0.055857554
100	0x3cfcf730	0.030879587
101	0xbb2db9f9	-0.0026508553
102	0x3bc992d6	0.0061515374
103	0x3d19223c	0.037386164
104	0xbd856dbe	-0.06515072
105	0xbc5d6aef	-0.0135142645
106	0x3d31e2b5	0.043429095
107	0xbc949dfa	-0.018141735
108	0x3ca149ab	0.019688448
109	0x3cf6d04d	0.030128622
110	0xbd385135	-0.04499932
111	0x3d2a113a	0.041520335
112	0x3c955c3b	0.018232455
113	0xbc9f5a26	-0.019452166
114	0xbd785c91	-0.060635153
115	0xbd200871	-0.03907055
116	0x3d37d397	0.044879522
117	0x3c983cf9	0.018583762
118	0x3d3c2f6c	0.045943663
119	0xbd639897	-0.055565443
120	0xbd053386	-0.03251984
121	0x3ccac596	0.02475242
122	0x3d0a9e23	0.033842217
123	0x3d172d61	0.03690851
124	0x3c962a93	0.018330848
125	0xbd85078a	-0.064955786
126	0xbcb05261	-0.021523656
127	0xbccda680	-0.025103807
128	0xbbb2a83b	-0.0054521835
129	0x3d2a8835	0.041633803
130	0x3cd01dba	0.0254048
131	0xbd1e8de2	-0.03870953
132	0x3cc531ff	0.024071692
133	0x3b16dae9	0.0023018664
134	0xbbb3cb0e	-0.0054868525
135	0x3cf3a809	0.029743211
136	0xbd06a997	-0.032876577
137	0xbd43529b	-0.0476862
138	0x3cdbd78e	0.026836183
139	0xbcbf6a3e	-0.02336609
140	0xbb56c6c3	-0.003277228
141	0x3b66b5e1	0.0035203623
142	0xbd7ab4d5	-0.06120761
143	0x3cb285a2	0.021792237
144	0x3cdf64a6	0.027269673
145	0xbd01249e	-0.03152906
146	0xbc883b17	-0.016629739
147	0x3c70b846	0.014692372
148	0xbcabb8b4	-0.020962097
149	0xbd3ca30a	-0.046053924
150	0x3cc0075e	0.023441013
151	0x3cdf20d3	0.027237331
152	0xbc4790b2	-0.012180494
153	0xbd64f70c	-0.055899665
154	0xbccda123	-0.02510125
155	0xbd0a10e9	-0.033707533
156	0x3caace8a	0.020850439
157	0x3cf17e17	0.02947907
158	0x3cce8c9c	0.025213532
159	0xbd0bd79c	-0.034141168
160	0xbcf6976a	-0.030101497
161	0xbd0c988a	-0.03432516
162	0xbd7c3839	-0.061577056
163	0x3d451965	0.04811992
164	0xbd03c9ad	-0.032174755
165	0x3d41523f	0.047197577
166	0x3d320f10	0.043471396
167	0xbd2f9afc	-0.042872414
168	0xbd29b0d2	-0.041428395
169	0xbc3c7224	-0.011501823
170	0xbbaf6b61	-0.0053533767
171	0x3c959f4d	0.018264437
172	0x3d43d1e0	0.047807574
173	0x3c549bd1	0.012976603
174	0x3cc6e91d	0.024281079
175	0x3cd15b82	0.02555633
176	0xbd014de4	-0.031568423
177	0xbd295778	-0.041343182
178	0xbcde037c	-0.02710127
179	0xbd2cc19b	-0.042176824
180	0x3c9738a5	0.018459627
181	0xbc8b2a67	-0.016987992
182	0xbd120c9b	-0.035656553
183	0x3d477adb	0.04870115
184	0x3a4da8b9	0.0007845271
185	0xbcbf2900	-0.02333498
186	0x3d70d0b2	0.058792777
187	0x3c1561d9	0.009117567
188	0xbbf63667	-0.0075138095
189	0x3d29adbc	0.04142545
190	0x3bcf0e31	0.0063188304
191	0xbcb1f7e4	-0.021724649
192	0xbd400c31	-0.046886627
193	0x3cd41e44	0.025893338
194	0xbc97759b	-0.018488696
195	0xbcdadf5d	-0.026717836
196	0x3cee951a	0.029123832
197	0x3c06c1bc	0.008224901
198	0xbd4a459a	-0.049382783
199	0x3c746277	0.014916054
200	0x3c68b59d	0.014203456
201	0xbba6009d	-0.005065991
202	0xbd050f26	-0.03248515
203	0x3d037c48	0.032100946
204	0xbd1a8796	-0.03772696
205	0xbbfa34a4	-0.00763567
206	0xbd39c98e	-0.045358233
207	0xbcd73828	-0.026271895
208	0x3d27c7a8	0.04096189
209	0xbd684ac8	-0.056711942
210	0xbd5a8c81	-0.05335665
211	0xbd7c9131	-0.061661903
212	0xbc6b030d	-0.014343989
213	0x3d33c456	0.043888412
214	0x3d46dc82	0.048550136
215	0x3d198177	0.037476983
216	0x3ccbfc52	0.02490059
217	0xbd06fc35	-0.032955367
218	0x3d4cb0c6	0.04997327
219	0x3c69d05c	0.014270868
220	0xbd56270c	-0.05228333
221	0x3d06bc46	0.032894395
222	0xb9f5bf13	-0.00046872403
223	0xbc75ada3	-0.0149950115
224	0x3d67d9f3	0.056604337
225	0xbd26014a	-0.040528573
226	0xbc2009e8	-0.009767987
227	0x3c1984a4	0.009370003
228	0x3c8c46a3	0.017123526
229	0xbd617e5a	-0.05505214
230	0x3d5231ce	0.05131703
231	0x3b9fced4	0.0048769508
232	0xbd320268	-0.043459326
233	0x3c38ef7a	0.011287564
234	0xbc9c1fb6	-0.01905809
235	0xbd218e53	-0.03944237
236	0xbd254d17	-0.04035672
237	0x3d2d5a9a	0.042322733
238	0x3991e4a8	0.00027826917
239	0x3d324405	0.0435219
240	0x3cf959f8	0.030438408
241	0x3d538e93	0.05164964
242	0xbd6621ea	-0.056184687
243	0x3bed9ad6	0.007251124
244	0xba33d4bb	-0.00068600074
245	0x3d268612	0.040655203
246	0xbccd2d18	-0.025045916
247	0x3d114b26	0.035472058
248	0x3d42ed1e	0.047589414
249	0x3bcfca88	0.0063412823
250	0x3d3c48a8	0.045967728
251	0x3ca58d7c	0.020209067
252	0x3bb899e1	0.005633578
253	0xbd893931	-0.067003615
254	0x3c9e1e6c	0.019301616
255	0x3cf56ef3	0.029960131

convs.2.bias f4 [10]
0	0xbd6e8ab3	-0.058237743
1	0x3bb58c11	0.005540379
2	0xbd7d3828	-0.061821133
3	0x3ce37514	0.027765788
4	0x3bc31f85	0.005954685
5	0xbd89ec03	-0.06734469
6	0x3d73b064	0.05949439
7	0x3c464f03	0.012103799
8	0x3b7ecc10	0.0038878955
9	0xbd893d26	-0.06701116

fc.weight f4 [47, 30]
0	0xbe373620	-0.17891741
1	0xbdde2fdf	-0.108489744
2	0x3e0528ec	0.13003892
3	0x3dc36c7f	0.09542178
4	0x395fbfa9	0.00021338336
5	0xbe53cf94	-0.20684654
6	0x3d69ee18	0.05711183
7	0xbe668f84	-0.22515684
8	0x3d19c48a	0.03754095
9	0x3ca74e0d	0.02042296
10	0xbd495167	-0.049149897
11	0x3ddd2074	0.107972056
12	0x3d38633c	0.045016512
13	0xbdf6d121	-0.12051607
14	0xbd9c9cf2	-0.076471224
15	0xbdae1405	-0.08499912
16	0xbd90de16	-0.070736095
17	0x3c0202d9	0.007935249
18	0xbc90ec6c	-0.01769086
19	0x3c95f52e	0.018305387
20	0xbe6726c3	-0.2257338
21	0xbe0d3aba	-0.13791934
22	0xbe070b40	-0.13187885
23	0xbd1a192d	-0.037621666
24	0xbde84f36	-0.11343233
25	0x3d97fa69	0.07420809
26	0xbd893baa	-0.06700833
27	0x3d6976b3	0.056997966
28	0xbd8fe4fd	-0.07026098
29	0x3d73fd90	0.059567988
30	0x3ddd915a	0.10818739
31	0x3dca3a84	0.09874442
32	0xbe208036	-0.15673909
33	0x3d8b58e8	0.06804067
34	0x3e18b1e3	0.14911608
35	0x3c0cbbea	0.008589724
36	0xbe115792	-0.14193562
37	0x3d9a1d27	0.075250916
38	0x3d051d5f	0.032498714
39	0xbdc118d5	-0.094285645
40	0xbd0e0743	-0.034674894
41	0xbe1bc7e4	-0.15212971
42	0x3e182815	0.1485904
43	0x3c4a80a6	0.012359774
44	0xbe201118	-0.15631521
45	0xb9e18d18	-0.00043020467
46	0xbd581fdc	-0.05276476
47	0xbe22839a	-0.15870515
48	0x3e027971	0.12741639
49	0x3dcfd733	0.10148468
50	0xbe23ab67	-0.15983354
51	0xbce7cd02	-0.028295998
52	0xbd6a0221	-0.057130937
53	0x3d5e80b1	0.05432195
54	0xbe414132	-0.18872526
55	0xbbfdd529	-0.007746358
56	0xbe50946d	-0.2036912
57	0x3dbb6a7f	0.09151172
58	0xbc19051d	-0.009339598
59	0xbcf19d43	-0.029493934
60	0xbe5346e1	-0.20632507
61	0x3dacb338	0.08432621
62	0xbe03849d	-0.12843557
63	0x3d95b925	0.07310704
64	0x3c1d62d4	0.009606082
65	0x3dfd0041	0.12353564
66	0xbe4dbaee	-0.2009084
67	0x3db4cc94	0.08828083
68	0xbc296cf6	-0.01034092
69	0xbe19cdcb	-0.1501991
70	0xbe3d42ea	-0.18482557
71	0x3da0ebfb	0.0785751
72	0xbd0d707c	-0.0345311
73	0xbd9c7568	-0.07639581
74	0x3d6a34df	0.057179328
75	0xbe425103	-0.18976216
76	0x3d657764	0.056022063
77	0x3e032d49	0.12810244
78	0x3dc53a5c	0.09630272
79	0xbdcf5874	-0.10124293
80	0x3e02ef38	0.12786567
81	0xbde2724e	-0.11056958
82	0xbc11f214	-0.008907814
83	0xbc923012	-0.017845187
84	0x3e0b7e3b	0.13622372
85	0xba890c4c	-0.0010455935
86	0xbe56a5fe	-0.20961758
87	0xbcccc6b5	-0.024997095
88	0x3e08eac0	0.133708
89	0x3d3b62e1	0.045748595
90	0x3d896f23	0.06710651
91	0xbdad1745	-0.08451704
92	0xbdc522f8	-0.096258104
93	0xbe28d947	-0.16489135
94	0x3d495301	0.049151424
95	0xbd1188ca	-0.035530843
96	0xbd9ab39e	-0.075537905
97	0x3ceeddd2	0.029158507
98	0xbe1d5a70	-0.1536653
99	0x3dd6162d	0.104534484
100	0xbe16d3ec	-0.1472928
101	0x3e07816d	0.13232966
102	0x3c508cb0	0.012728855
103	0x3d935488	0.071938574
104	0xbd15ca62	-0.03656996
105	0xbe297f07	-0.16552363
106	0xbdd2c65d	-0.10291741
107	0x3d053954	0.032525375
108	0xbc031991	-0.008001701
109	0x3d8cd96f	0.0687741
110	0xbb2a0557	-0.0025943124
111	0xbd75e46b	-0.06003229
112	0xbe30d253	-0.17267732
113	0xbe112c45	-0.14177044
114	0x3dff62d0	0.12470019
115	0xbdea543c	-0.11441848
116	0xbe3742ed	-0.17896624
117	0xbdb7f9f1	-0.089832194
118	0x3c94b29a	0.01815157
119	0xbe484bde	-0.19560191
120	0x3ce7a184	0.028275259
121	0xbdd55538	-0.10416645
122	0x3bcae489	0.0061917943
123	0x3de94a91	0.113911755
124	0xbb2ad44a	-0.0026066476
125	0xbe16141a	-0.14656106
126	0xbd5062e0	-0.050875545
127	0xbd5f08d5	-0.054451782
128	0xbca74aa7	-0.02042134
129	0x3e007d8b	0.12547891
130	0xbe012d17	-0.12614857
131	0x3de43746	0.11143355
132	0x3db9dd02	0.09075357
133	0xbe247f9f	-0.16064309
134	0x3dc2a833	0.09504738
135	0x3dd49e10	0.103817105
136	0x3cd011f6	0.02539919
137	0xbdb67c19	-0.089103885
138	0xbe330c29	-0.17485107
139	0x3b799657	0.0038083994
140	0xbd7a7230	-0.061144054
141	0xbe1ca1e3	-0.1529613
142	0xbe30ebdb	-0.17277472
143	0xbe55763a	-0.20845881
144	0x3e051bc3	0.12998872
145	0x3dac1c25	0.08403806
146	0xbcca5d61	-0.02470273
147	0xbe3159b1	-0.17319371
148	0xbe327eea	-0.17431226
149	0x3d98ba16	0.07457368
150	0x3e13e698	0.14443433
151	0xbdcb7f61	-0.09936405
152	0x3dd9e91c	0.10640165
153	0xbe1249db	-0.14285986
154	0xbe3214bf	-0.17390727
155	0xbd8f7e42	-0.07006504
156	0x3e01931b	0.12653773
157	0x3dd27bd6	0.10277526
158	0x3d38b52f	0.045094665
159	0xbd2b5fc9	-0.041839395
160	0xbceb2920	-0.028706133
161	0x3e086f55	0.1332372
162	0xbde92431	-0.11383856
163	0xbdbdf12b	-0.09274515
164	0x3e03c2f7	0.12867342
165	0xbd88e073	-0.06683435
166	0xbde506ca	-0.111829355
167	0xbdbe0976	-0.09279148
168	0xbd36d264	-0.044634238
169	0x3d43cbb1	0.047801677
170	0x3e28f9bb	0.16501515
171	0x3d7c6444	0.06161906
172	0x3d8dfd47	0.069330744
173	0x3d5e2586	0.054235004
174	0xbd965c0e	-0.07341777
175	0xbe1ff138	-0.15619361
176	0x3e073499	0.13203658
177	0xbc515741	-0.012777151
178	0xbd7b632e	-0.061373882
179	0xbe2a299c	-0.16617435
180	0xbe6204a8	-0.22072089
181	0xbd825e05	-0.06365589
182	0xbe6d25d0	-0.23158956
183	0xbe5dd4bc	-0.21663183
184	0x3d9f922c	0.07791552
185	0xbbad042a	-0.0052800374
186	0xbdb49478	-0.08817381
187	0xbd8a7fcf	-0.06762659
188	0x3d3c7ecf	0.04601937
189	0xbbf40088	-0.0074463524
190	0xbe3d742c	-0.18501347
191	0xbde89ed2	-0.113584176
192	0x3da2c20e	0.07947169
193	0xbd867644	-0.06565526
194	0xbc5c4a0a	-0.013445387
195	0x3d97c3f0	0.07410419
196	0x3d642514	0.055699423
197	0xbd277906	-0.0408869
198	0x3c421d0b	0.011847745
199	0xbe812429	-0.252229
200	0xbdd05a79	-0.10173506
201	0x3da0b28b	0.07846554
202	0x3d9152e2	0.07095887
203	0x3c6125f0	0.013741955
204	0xbc685655	-0.014180739
205	0x3dc13148	0.09433228
206	0x3da94f97	0.08267134
207	0xbe7efe3b	-0.24901669
208	0xbe10b1a7	-0.14130269
209	0xbdf8a783	-0.12141325
210	0x3ddd5690	0.10807526
211	0x3e0e2440	0.13881016
212	0x3cd9612f	0.026535599
213	0x3e0aea30	0.13565898
214	0xbdc6b2b7	-0.09702056
215	0x3d4166ad	0.04721706
216	0xbdfca01f	-0.12335228
217	0xbe36f390	-0.17866349
218	0x3dd1bbe4	0.102409154
219	0x3a860412	0.0010224602
220	0x3ddbb7de	0.10728429
221	0x3dba50e6	0.090974614
222	0x3e049bc0	0.12950039
223	0xbe538472	-0.20655993
224	0xbd7fbb05	-0.062434215
225	0xbc261da1	-0.0101389
226	0xbdfef9cb	-0.12449988
227	0xbd60b80f	-0.054863032
228	0xbe0e2fa6	-0.13885364
229	0x3cf811c9	0.030281918
230	0x3c7a8823	0.015291247
231	0xbd30eb12	-0.04319293
232	0xbd1d7596	-0.038442217
233	0xbdeb3f75	-0.11486713
234	0xbd6aae08	-0.057294875
235	0xbdd54f0a	-0.10415466
236	0x3a3c8728	0.0007191771
237	0xbdd9e572	-0.10639466
238	0x3c194466	0.009354686
239	0xbe4d6bca	-0.2006065
240	0xbcb274ac	-0.02178415
241	0xbdb03f89	-0.08605868
242	0xbc569394	-0.013096709
243	0xbd9951e8	-0.074863255
244	0xbe4db719	-0.20089377
245	0xbc57e4db	-0.013177122
246	0xba1f0b08	-0.00060670124
247	0xbbd1f577	-0.0064074355
248	0xbe395d1d	-0.18101926
249	0xbe13b7cf	-0.14425586
250	0x3bcdd50a	0.0062814998
251	0x3cd8ad3d	0.026449794
252	0xbd83da21	-0.06438089
253	0xbde69648	-0.112591326
254	0x3bbcfebc	0.0057676714
255	0x3dba2fc0	0.09091139

fc.bias f4 [47]
0	0x3dd8d817	0.10588091
1	0x3ae505b3	0.0017473012
2	0x3e0d433e	0.13795182
3	0xbe28348e	-0.16426298
4	0x3debd1bf	0.11514615
5	0x3db61752	0.08891167
6	0xbd929b78	-0.071585596
7	0xbe3c972c	-0.18417042
8	0x3ddefc76	0.10887997
9	0xbd14a328	-0.03628841
10	0x3bee82b9	0.007278767
11	0xbd2bede2	-0.04197491
12	0xbd887a9a	-0.066640094
13	0x3e0a8f83	0.13531308
14	0x3b1a66c5	0.002355979
15	0xbe5d9359	-0.2163824
16	0x3ca59f72	0.020217631
17	0x3e470397	0.19434963
18	0x3c2be3a2	0.010491284
19	0x3df59ee6	0.11993198
20	0xbd51a691	-0.05118424
21	0xbd04530c	-0.032305762
22	0x3e1b9350	0.15192914
23	0x3df2e74e	0.11860524
24	0x3de444f5	0.11145965
25	0x3e00565f	0.12532948
26	0xbe3a7073	-0.18206958
27	0xbde74863	-0.112931035
28	0xbe355353	-0.17707567
29	0xbcb3e0d2	-0.021957789
30	0x3ddced2c	0.107874244
31	0xbdeaed5d	-0.11471055
32	0xbd977020	-0.07394433
33	0x3dc0f8b4	0.09422436
34	0xbd455db1	-0.048185054
35	0xbdf59b84	-0.11992553
36	0x3d7c5d0b	0.06161217
37	0xbe2520a6	-0.16125736
38	0xbca00953	-0.019535696
39	0xbd62d196	-0.055375658
40	0xbd88d20b	-0.066806875
41	0xbe4ca873	-0.19986133
42	0x3dbf2ae7	0.09334355
43	0xbdc023af	-0.09381806
44	0x3bd7cf2b	0.0065859756
45	0x3e0623a2	0.1309953
46	0xbe3ec3ff	-0.18629454
