data/TextCNN.v1.pt (torch_old, 165703 bytes, 8 tensors)

convs.0.weight f4 [10, 1, 2, 400]
0.03925449 0.091502994 -0.0044838525 -0.09898076 -0.18773915 0.30656064 0.27621725 0.10129401
0.05640085 0.13593605 0.11717492 0.14792265 0.022006074 0.19412138 -0.032603595 -0.22338402
-0.011013168 -0.02047473 -0.1255788 -0.041286476 -0.10471737 -0.09270573 -0.08460037 -0.16811046
0.101861395 -0.28506136 0.02914719 0.17281905 -0.18127847 -0.24152558 -0.1375094 -0.19164054
-0.046983957 -0.15349928 -0.095717564 0.00014505714 -0.07163671 0.07647278 0.0075436 0.15043768
0.1331857 0.21951386 0.29352137 -0.1518488 -0.21638256 -0.25635827 -0.17137071 -0.07289261
-0.26716068 0.038032945 -0.010113302 -0.17291108 -0.05686208 0.06300492 0.2869471 -0.008198487
-0.10501721 -0.28726885 0.021418955 -0.06296154 -0.017468853 0.072630905 0.10835729 -0.020148959
0.103146605 0.05683285 0.0873717 0.25691992 0.0458876 0.12198756 -0.23106603 -0.028668005
0.33400044 -0.08346869 -0.092601165 0.02930629 0.20632002 0.25191224 -0.20023279 -0.024960726
0.04375056 -0.26586357 -0.12850563 0.16143507 -0.08439249 -0.060870256 -0.00033377233 0.004185012
-0.0032790927 0.04335486 -0.07448579 -0.03434964 0.05330981 -0.028890146 0.0033459486 -0.2827086
0.17446116 -0.052637566 -0.36008894 -0.27919102 0.17298469 -0.045067888 0.16433477 0.11746518
-0.14713751 0.058683664 -0.16663752 -0.029761737 -0.07328543 -0.08799271 0.07486221 -0.01116708
-0.11024548 -0.11200491 0.09421796 0.19161312 0.16466552 0.017891368 0.027339198 -0.19261922
0.041611675 0.06882223 0.04277435 -0.23549713 -0.023493126 -0.2515806 0.1401788 -0.12814738
0.077033006 0.020740163 -0.18018132 0.039459594 -0.008482652 0.030073937 -0.115958385 -0.03838532
0.14755894 0.02891283 -0.04066511 0.05031323 0.06416434 -0.010582882 -0.2411097 0.036317833
0.0040254327 0.13303882 0.20763928 -0.034851532 -0.086026356 0.077536754 -0.18931934 0.3895022
0.06034107 -0.27942967 -0.2724051 0.039400417 0.12946497 -0.09639689 0.19208688 -0.0745515
-0.021970263 0.12841374 -0.19588934 0.1078121 0.14925899 -0.016652565 0.14911842 -0.22644076
-0.05951017 0.12730396 0.061731067 -0.047682382 0.05866708 -0.01762575 0.09073367 0.11654543
0.25733083 -0.07595749 -0.06982352 0.06121659 0.116128035 0.08183284 0.26881924 0.17766313
-0.024994086 0.16662538 -0.2451496 0.16189565 0.17467822 0.18674174 -0.12076342 -0.09694222
0.09143553 0.055340245 -0.20689209 -0.012175196 0.046045847 0.047972303 0.09147018 0.35216352
-0.038209267 0.048858117 0.045100987 -0.049883537 0.0006461743 0.020675272 0.03753197 0.035125148
-0.13035803 -0.06285031 -0.08824125 0.39374867 -0.05574671 0.08130067 0.00863404 0.22989771
0.13005903 0.15969276 0.13944723 -0.21785992 -0.2599208 -9.495537e-05 0.021251112 -0.1432327
0.057073075 -0.2951171 0.04838537 -0.08229842 -0.070927314 0.01257684 -0.05278912 0.053078834
0.20661531 0.07186861 0.19403513 -0.05088351 -0.11191715 -0.039453886 -0.065321386 0.120080546
0.23572086 -0.094499506 -0.05210095 0.016219536 0.0064310147 0.13265768 0.13633972 -0.0961037
0.038522366 0.065120146 -0.12016686 0.081398726 -0.25183678 0.059591193 0.065134265 -0.015727874
00000000: 51c9 203d ec65 bb3d 48ed 92bb 6db6 cabd
00000010: b13e 40be 84f5 9c3e 596c 8d3e 3c73 cf3d
00000020: 9404 673d d232 0b3e 68f9 ef3d 0979 173e
00000030: 1546 b43c c1c7 463e 598b 05bd c8be 64be
00000040: 9370 34bc 9fba a7bc bb97 00be 021c 29bd
00000050: 0f76 d6bd 80dc bdbd f542 adbd 2625 2cbe
00000060: b59c d03d 90f3 91be 16c6 ee3c 7af7 303e
00000070: 10a1 39be 7b52 77be 44cf 0cbe 6b3d 44be
00000080: 4072 40bd ea2e 1dbe 9207 c4bd 7b1a 1839
00000090: 44b6 92bd c39d 9c3d 4e30 f73b 560c 1a3e
000000a0: d561 083e 3ec8 603e 6f48 963e 407e 1bbe
000000b0: 6493 5dbe 6441 83be ce7b 2fbe b948 95bd
000000c0: 49c9 88be 6fc8 1b3d 43b2 25bc 9a0f 31be
000000d0: 36e8 68bd b908 813d bbea 923e f252 06bc
000000e0: 4313 d7bd e714 93be ce76 af3c fbf1 80bd
000000f0: d71a 8fbc 83bf 943d 6dea dd3d 6e0f a5bc
00000100: 873e d33d 90c9 683d efef b23d 028b 833e
00000110: a3f4 3b3d 9dd4 f93d 939c 6cbe 2ad9 eabc
00000120: 1b02 ab3e a2f1 aabd aea5 bdbd bf13 f03c
00000130: 8e45 533e a4fa 803e d309 4dbe 707a ccbc
00000140: ca33 333d 451f 88be fb96 03be 3c4f 253e
00000150: f8d5 acbd 1753 79bd 2afe aeb9 6d22 893b
00000160: 0ce6 56bb de94 313d 028c 98bd 35b2 0cbd
00000170: 635b 5a3d 07ab ecbc b447 5b3b 2ebf 90be
00000180: f2a5 323e 7d9a 57bd 945d b8be 20f2 8ebe
00000190: e622 313e 1b99 38bd 6047 283e 9691 f03d
000001a0: 37ab 16be 485e 703d 07a3 2abe e3ce f3bc
000001b0: ac16 96bd 8635 b4bd 5c51 993d 21f6 36bc
000001c0: 62c8 e1bd d562 e5bd 59f5 c03d 3b36 443e
000001d0: 149e 283e eb90 923c 74f6 df3c f93d 45be
000001e0: 0171 2a3d abf2 8c3d 2834 2f3d 2926 71be
000001f0: a874 c0bc 2ccf 80be 088b 0f3e 1139 03be
00000200: 7bc3 9d3d 46e7 a93c 7481 38be 62a0 213d
00000210: d2fa 0abc 9e5d f63c 977b edbd ed39 1dbd
00000220: b119 173e 99da ec3c 7590 26bd 3f15 4e3d
00000230: 9868 833d d363 2dbc 76e5 76be 02c2 143d
00000240: c7e7 833b 543b 083e 649f 543e 7bc0 0ebd
00000250: 962e b0bd 97cb 9e3d eedc 41be d56c c73e
00000260: 3328 773d 6811 8fbe ae78 8bbe 5562 213d
00000270: 7792 043e bc6b c5bd 6cb2 443e 75ae 98bd
00000280: fbfa b3bc e47e 033e 3797 48be 97cc dc3d
00000290: 59d7 183e f66a 88bc 80b2 183e 16e0 67be
000002a0: f0c0 73bd f85b 023e b7d9 7c3d 9a4e 43bd
000002b0: e44c 703d e063 90bc 93d2 b93d 5faf ee3d
000002c0: dec0 833e 9a8f 9bbd a2ff 8ebd 3fbe 7a3d
000002d0: 89d4 ed3d fa97 a73d ada2 893e 53ed 353e
000002e0: 66c0 ccbc d89f 2a3e 7f08 7bbe f9c7 253e
000002f0: d9de 323e 3a39 3f3e d052 f7bd a589 c6bd
00000300: 8d42 bb3d 74ac 623d 85db 53be 797a 47bc
00000310: 929a 3c3d 9b7e 443d b854 bb3d c74e b43e
00000320: 5281 1cbd 731f 483d d0bb 383d ae52 4cbd
00000330: 0664 293a 305f a93c 1fbb 193d 63df 0f3d
00000340: 937c 05be aab7 80bd d4b7 b4bd 6d99 c93e
00000350: aa56 64bd f780 a63d ca75 0d3c 4e6a 6b3e
00000360: 322e 053e 8086 233e 41cb 0e3e ac16 5fbe
00000370: 5714 85be c722 c7b8 d016 ae3c 98ab 12be
00000380: 75c5 693d 9719 97be bd2f 463d 138c a8bd
00000390: 5742 91bd 170f 4e3c 6739 58bd 3169 593d
000003a0: f792 533e da2f 933d 25b1 463e 3a6b 50bd
000003b0: d234 e5bd 669a 21bd 38c7 85bd caec f53d
000003c0: cf60 713e f588 c1bd ce67 55bd d5de 843c
000003d0: 43bb d23b 6ad7 073e a49c 0b3e 04d2 c4bd
000003e0: a1c9 1d3d b65d 853d 0b1a f6bd 60b4 a63d
000003f0: c0f0 80be e515 743d 1d65 853d bed7 80bc

convs.0.bias f4 [10]
-1.1607682 -1.0555092 -1.3519907 -1.2827407 -1.2436023 -1.171836 -1.1173103 -0.96318585
-0.77150995 -0.8062221
00000000: 0d94 94bf ed1a 87bf 080e adbf d930 a4bf
00000010: 5c2e 9fbf b9fe 95bf 0604 8fbf 5993 76bf
00000020: ad81 45bf 9264 4ebf

convs.1.weight f4 [10, 1, 3, 400]
-0.036426138 0.18584424 -0.10924596 -0.32204542 -0.11389126 0.06134378 0.010871941 0.03612003
-0.069581665 -0.12606211 0.40815306 0.16947843 0.0061757443 0.10062144 -0.23330244 -0.029895904
-0.02014697 0.13414136 -0.089950964 0.052072994 -0.29865578 -0.14397873 0.013372646 0.08693192
0.09744515 -0.16976658 -0.15688686 0.14106789 -0.16454478 -0.35536265 -0.0459999 0.12532663
0.03423719 -0.017120548 0.09167997 -0.027193824 0.111732684 0.02217273 -0.115224585 0.050460886
-0.012072366 0.25859535 -0.03402514 0.06981561 0.12597506 0.0016400616 -0.24255985 0.007993958
-0.076197654 0.08341874 0.06738788 -0.049980465 -0.16024901 0.06325233 0.17508122 0.044084173
0.053828433 -0.07552766 0.004639633 -0.2943595 0.010124639 -0.030754242 0.052667845 0.109044746
0.13401273 -0.18828759 0.22762331 0.152911 0.075259335 0.03407252 0.048530072 0.051599313
0.08422939 -0.14186746 -0.058916584 -0.12762915 -0.034749072 -0.061652206 -0.0016537907 -0.029809685
-0.093702845 0.097910255 -0.1218229 0.16146128 0.05351132 -0.16607177 0.12724574 -0.021501772
0.32643893 0.06516371 0.40646937 -0.03870655 0.071368314 0.037653763 -0.050309643 0.061932527
0.00057125173 -0.013142528 0.20928347 -0.1378894 -0.13244586 -0.03130211 0.08549666 -0.08482144
0.16389495 0.08740885 0.13570833 -0.044653006 -0.0034999028 -0.16065122 0.12034145 -0.1024956
-0.059005763 -0.11918648 0.07719449 0.019310025 -0.11904574 -0.12632792 0.1578216 0.11639692
-0.18472148 0.007474383 0.09040958 -0.1416951 -0.15285543 -0.11254439 0.021541694 -0.06747518
0.045915835 0.20019984 -0.07440063 -0.066931225 0.018653538 -0.19071636 -0.06596485 0.14420746
0.11206187 0.077329434 0.1774168 0.0871056 0.07884752 -0.15674743 0.1637757 0.18712352
0.08676852 -0.1596437 0.18310593 0.042951148 0.096852936 -0.037222765 -0.051600117 0.0670757
0.00045591587 -0.049801663 0.011308773 0.15122533 0.04974362 0.21378385 -0.11039679 -0.4021885
0.026032994 0.0734315 -0.22759931 -0.13827287 -0.046394955 0.097709484 0.358169 0.06629692
-0.075422175 -0.01893838 -0.22599038 -0.1316007 -0.118271716 -0.047376182 -0.0010731327 0.07022323
-0.083485864 -0.081764825 0.24192303 0.10488536 0.27465904 -0.014209629 0.15801832 0.18427622
0.043631773 0.24520862 0.010475649 0.05663765 -0.015976693 0.06304972 -0.22387119 -0.068818256
0.07126132 0.008803677 -0.12389078 -0.18045537 -0.07017553 -0.106859215 -0.2203324 -0.11136481
-0.08914675 0.07144443 0.0831804 -0.07294096 -0.012959165 0.04421344 -0.08159593 -0.14915188
-0.036542654 -0.17240424 0.10596924 -0.14281613 -0.16907807 0.019056665 -0.060924403 0.039784275
0.17237669 0.007554005 0.033246227 0.25881258 -0.4110513 -0.023756696 0.16853534 0.14288047
-0.034572855 -0.032921635 0.10944872 0.060281795 -0.21210377 -0.070745215 0.02833296 0.024595227
-0.063426435 -0.08963184 -0.022749266 -0.006275254 -0.14850809 0.16951609 -0.0011549448 0.2428765
-0.068082415 -0.26921594 -0.13072 0.03995898 0.33231306 0.07046688 -0.14495671 -0.16560864
0.062091142 0.040195443 -0.089544415 0.079822004 -0.21617053 0.11235142 0.19348928 -0.12701559
00000000: 9333 15bd f44d 3e3e 59bc dfbd 23e3 a4be
00000010: d23f e9bd 9e43 7b3d 3a20 323c 99f2 133d
00000020: d580 8ebd 6d16 01be 70f9 d03e c18b 2d3e
00000030: e65d ca3b 9d12 ce3d d6e6 6ebe 41e8 f4bc
00000040: 420b a5bc 5a5c 093e 3638 b8bd 7e4a 553d
00000050: 69e9 98be 296f 13be f118 5b3c 5d09 b23d
00000060: 5391 c73d 4ad7 2dbe f3a6 20be 1a74 103e
00000070: 6d7e 28be 18f2 b5be 646a 3cbd a055 003e
00000080: 4c3c 0c3d 6440 8cbc b5c2 bb3d 95c5 debc
00000090: 1bd4 e43d 96a3 b53c defa ebbd 13b0 4e3d
000000a0: 2ccb 45bc 9c66 843e f25d 0bbd 7dfb 8e3d
000000b0: 9bff 003e 56f7 d63a 9c61 78be 17f9 023c
000000c0: 840d 9cbd 72d7 aa3d a802 8a3d 51b8 4cbd
000000d0: 5118 24be 708a 813d 7e48 333e 9b91 343d
000000e0: 347b 5c3d 3fae 9abd 1008 983b 4ab6 96be
000000f0: d0e1 253c 52f0 fbbc 3dba 573d da52 df3d
00000100: a23a 093e 76ce 40be 1616 693e b494 1c3e
00000110: 9121 9a3d a08f 0b3d 78c7 463d cd59 533d
00000120: 7580 ac3d b445 11be 8452 71bd 37b1 02be
00000130: 0b55 0ebd 0687 7cbd 02c4 d8ba 7133 f4bc
00000140: 47e7 bfbd 2c85 c83d 497e f9bd 1b56 253e
00000150: b02e 5b3d b80e 2abe b54c 023e 7c24 b0bc
00000160: 0123 a73e 8d74 853d c11c d03e c28a 1ebd
00000170: 8d29 923d d53a 1a3d 7c11 4ebd f6ac 7d3d
00000180: 0ec0 153a c253 57bc 684e 563e e132 0dbe
00000190: e39f 07be a436 00bd df18 af3d ddb6 adbd
000001a0: 14d4 273e 6903 b33d 20f7 0a3e 12e6 36bd
000001b0: a05e 65bb c181 24be 9475 f63d 37e9 d1bd
000001c0: 07b0 71bd 0b18 f4bd 2518 9e3d 0f30 9e3c
000001d0: 41ce f3bd 1b5c 01be fc9b 213e 8261 ee3d
000001e0: a127 3dbe abeb f43b a828 b93d 8518 11be
000001f0: 2286 1cbe ac7d e6bd 3578 b03c 6d30 8abd
00000200: 3e12 3c3d 3001 4d3e 5c5f 98bd 3d13 89bd
00000210: 4ecf 983c 264b 43be 9418 87bd 1fab 133e
00000220: b280 e53d e55e 9e3d c0ac 353e 6c64 b23d
00000230: cf7a a13d 6682 20be d1b4 273e 4f9d 3f3e
00000240: b2b3 b13d a379 23be 1f80 3b3e 8bed 2f3d
00000250: d55a c63d e676 18bd a55a 53bd fc5e 893d
00000260: fe07 ef39 d4fc 4bbd 6f48 393c d0da 1a3e
00000270: f7bf 4b3d 27ea 5a3e b617 e2bd a7eb cdbe
00000280: 2543 d53c 4163 963d cb0f 69be 6797 0dbe
00000290: a308 3ebd e91b c83d ed61 b73e aec6 873d
000002a0: f176 9abd a924 9bbc 066a 67be 55c2 06be
000002b0: 7138 f2bd 870d 42bd 5ca8 8cba 32d1 8f3d
000002c0: a3fa aabd 5174 a7bd acba 773e 23ce d63d
000002d0: 1ca0 8c3e 81cf 68bc 8ecf 213e e8b2 3c3e
000002e0: 3bb7 323d f817 7b3e 0ea2 2b3c e1fc 673d
000002f0: 8ee1 82bc 3620 813d 7d3e 65be 96f0 8cbd
00000300: 74f1 913d 4c3d 103c 73ba fdbd 4bc9 38be
00000310: 30b8 8fbd 01d9 dabd d19e 61be 3c13 e4bd
00000320: 9292 b6bd 7551 923d 7c5a aa3d 1262 95bd
00000330: ad52 54bc 2719 353d c41b a7bd 45bb 18be
00000340: c0ad 15bd bd8a 30be 6706 d93d 643e 12be
00000350: cd22 2dbe b91c 9c3c de8b 79bd d6f4 223d
00000360: 8483 303e 9687 f73b 322d 083d 1583 843e
00000370: 5175 d2be 679d c2bc 8794 2c3e 424f 123e
00000380: 449c 0dbd d6d8 06bd a726 e03d 0bea 763d
00000390: bb31 59be dee2 90bd 861a e83c ee7b c93c
000003a0: b8e5 81bd e690 b7bd ab5c babc a5a0 cdbb
000003b0: 8112 18be a095 2d3e 8461 97ba 9eb4 783e
000003c0: cb6e 8bbd acd6 89be 77db 05be 07ac 233d
000003d0: f024 aa3e f150 903d 886f 14be 5095 29be
000003e0: 4853 7e3d faa3 243d 1063 b7bd b879 a33d
000003f0: cf5b 5dbe 8018 e63d 0e22 463e 6010 02be

convs.1.bias f4 [10]
-0.99590874 -0.8348283 -0.90299785 -1.2199848 -0.82203144 -0.6119954 -0.76986915 -0.32528102
-0.90333956 -0.942405
00000000: e0f3 7ebf 4fb7 55bf de2a 67bf 7628 9cbf
00000010: a770 52bf bbab 1cbf 2516 45bf 3c8b a6be
00000020: 4341 67bf 7441 71bf

convs.2.weight f4 [10, 1, 5, 400]
-0.011749732 0.14189988 -0.092201635 0.05475976 0.06366628 -0.015496543 -0.38211277 -0.19639444
-0.0011800594 -0.009703966 0.25660843 -0.056879364 0.1223153 0.06575289 0.021647125 0.03638025
0.1401948 0.11605278 -0.14545067 0.2585694 0.088308744 -0.15175132 0.1466058 -0.03738445
0.06559665 -0.16831522 0.019863473 0.047938507 0.11530775 -0.1700766 -0.030792926 0.02867095
-0.0500144 0.023260312 -0.0107752 0.15124783 -0.06309825 -0.16253673 -0.10481792 -0.050137714
0.083196744 0.089618556 -0.013017227 -0.26835197 0.04381752 0.14997229 -0.19787921 -0.0010492589
-0.045029085 -0.07979303 0.020862175 -0.04376218 -0.09892652 0.02046552 0.14574003 0.02318152
0.06725917 -0.31147966 0.08399467 -0.27954218 0.13135706 -0.09249551 0.1328054 0.035755653
-0.15771502 0.08980137 0.18107346 0.3497151 0.06523151 0.11375956 -0.060152184 0.07008761
-0.03495592 -0.086376235 -0.050303068 -0.05961614 0.0012099303 -0.05290809 0.09888781 -0.031169284
0.25032777 -0.12983486 0.08147098 0.064690255 -0.09574725 -0.11418648 -0.0028247833 -0.10672293
-0.17084385 -0.09575547 -0.09160592 0.30047846 -0.06817014 -0.045144364 -0.18218239 -0.19916347
-0.10527041 0.09306642 -0.06952889 -0.36062074 -0.07099071 -0.06717158 -0.09197993 -0.054189462
-0.069058865 0.09057449 -0.067612626 -0.29047617 0.02154016 0.0023004261 0.03118173 -0.06737365
0.09093882 -0.132703 0.14331795 0.060851432 -0.0776395 -0.13137366 -0.06334268 -0.21768603
0.20925508 -0.13770506 0.050872903 0.11332037 -0.02429644 0.22249581 -0.02252045 0.15082939
0.0100644855 0.059057847 0.19238733 -0.049201146 0.017319782 0.09732556 0.27475578 0.26367775
0.01882366 -0.09545677 0.092640534 -0.053040113 -0.043205127 -0.0989626 0.14713961 0.16806151
0.24620025 0.009234798 0.09134062 -0.026617356 -0.2652757 0.18627602 0.14833105 0.14466189
0.17824109 0.1650873 0.05635427 0.23019184 -0.038494762 0.045902323 0.027559109 -0.050696135
0.17073639 0.05957355 -0.35632953 -0.071139604 0.042599592 -0.11037292 0.38229936 -0.12754251
-0.09880476 0.044440497 -0.02400738 -0.048182115 0.1843164 -0.00209764 -0.29257816 0.058178194
-0.13688071 -0.1657389 0.08858573 -0.0058375406 0.00901243 -0.08335289 0.13369378 -0.16177425
0.011221384 -0.018261384 0.05788271 -0.1311973 0.10946731 0.43011135 -0.026640277 -0.17273884
0.07851552 -0.13043208 -0.19586845 -0.16843852 -0.051880706 -0.18738063 0.14339979 0.13284993
0.022824049 0.15936126 -0.049154423 -0.16762172 -0.10439224 0.035376273 -0.21952744 -0.3695228
0.0075584585 -0.1963831 -0.20850104 -0.043567516 -0.046225842 0.039873313 -0.050642963 -0.030245442
-0.086720176 -0.048152737 -0.022179883 0.013684226 -0.17215966 -0.079572625 0.015127089 -0.12643798
0.19558157 0.1452626 0.13022156 -0.02333895 0.057413425 0.17326103 -0.010669044 -0.22471577
-0.078438245 -0.20371665 0.07304643 -0.06587105 -0.02168132 -0.10085239 0.041770943 0.0151594
-0.03264209 0.00021519807 -0.05755185 0.13970748 0.17278354 -0.037893653 0.07975549 0.03761597
-0.004849229 -0.16192977 -0.25064644 0.15942816 -0.070190154 0.09674109 0.22937337 -0.10384521
00000000: f381 40bc 344e 113e 36d4 bcbd c54b 603d
00000010: 7763 823d 36e5 7dbc 49a4 c3be a01b 49be
00000020: 39ac 9aba 62fd 1ebc 2e62 833e 56fa 68bd
00000030: 7280 fa3d 74a9 863d 5055 b13c 7503 153d
00000040: 3a8f 0f3e 14ad ed3d 05f1 14be 3563 843e
00000050: 37db b43d b364 1bbe d51f 163e 7020 19bd
00000060: 8957 863d d35a 2cbe b9b8 a23c 2b5b 443d
00000070: 7826 ec3d 8f28 2ebe 7241 fcbc 57df ea3c
00000080: e6db 4cbd 698c be3c 778a 30bc b6e0 1a3e
00000090: a839 81bd 0770 26be c7aa d6bd 345d 4dbd
000000a0: 0e63 aa3d ef89 b73d 3546 55bc 6e65 89be
000000b0: 007a 333d 5692 193e d9a0 4abe 4987 89ba
000000c0: 6b70 38bd 876a a3bd 27e7 aa3c f93f 33bd
000000d0: fd99 cabd 4ea7 a73c e03c 153e 2ce7 bd3c
000000e0: 2dbf 893d 437a 9fbe 6605 ac3d 2720 8fbe
000000f0: 7782 063e 496e bdbd 24fe 073e 8574 123d
00000100: 0c80 21be c8e9 b73d 526b 393e dc0d b33e
00000110: 1998 853d c6fa e83d 2362 76bd 188a 8f3d
00000120: f02d 0fbd 06e6 b0bd 970a 4ebd 0e30 74bd
00000130: 8696 9e3a 27b6 58bd b185 ca3d ba56 ffbc
00000140: f62a 803e 6ef3 04be 42da a63d 537c 843d
00000150: 2217 c4bd 9ada e9bd 0020 39bb 8d91 dabd
00000160: b1f1 2ebe 721b c4bd e29b bbbd 50d8 993e
00000170: c99c 8bbd 4ce9 38bd 058e 3abe 82f1 4bbe
00000180: 0398 d7bd 9b99 be3d 2a65 8ebd 48a3 b8be
00000190: 9463 91bd 4191 89bd f95f bcbd c5f5 5dbd
000001a0: bc6e 8dbd 1e7f b93d 7d78 8abd 4bb9 94be
000001b0: fd74 b03c bfc2 163b d470 ff3c 32fb 89bd
000001c0: 223e ba3d 4ce3 07be f1c1 123e 5a3f 793d
000001d0: 7501 9fbd d186 06be cfb9 81bd 16e9 5ebe
000001e0: f746 563e 8e02 0dbe 1b60 503d 8314 e83d
000001f0: 5409 c7bc f1d5 633e cf7c b8bc 0573 1a3e
00000200: 83e5 243c a4e6 713d 2f01 453e 2487 49bd
00000210: 37e2 8d3c a052 c73d caac 8c3e c500 873e
00000220: 1434 9a3c d77e c3bd 52ba bd3d 9740 59bd
00000230: dcf7 30bd e7ac cabd c4ab 163e 5118 2c3e
00000240: eb1b 7c3e 8d4d 173c ca10 bb3d a40c dabc
00000250: 37d2 87be 24bf 3e3e 18e4 173e 3f22 143e
00000260: d584 363e a50c 293e bcd3 663d 69b7 6b3e
00000270: afac 1dbd 1304 3c3d a4c3 e13c c0a6 4fbd
00000280: 85d5 2e3e 6503 743d d370 b6be a4b1 91bd
00000290: e97c 2e3d 330b e2bd bebc c33e 819a 02be
000002a0: 265a cabd 3d07 363d 20ab c4bc 9c5a 45bd
000002b0: 70bd 3c3e 8f78 09bb cecc 95be 424c 6e3d
000002c0: 752a 0cbe 75b7 29be 6f6c b53d d748 bfbb
000002d0: dfa8 133c ecb4 aabd 06e7 083e 26a8 25be
000002e0: e5d9 373c e698 95bc 6c16 6d3d 9658 06be
000002f0: 6630 e03d 8e37 dc3e b63c dabc 73e2 30be
00000300: bfcc a03d fd8f 05be bd91 48be 267b 2cbe
00000310: dd80 54bd b5e0 3fbe 65d7 123e d009 083e
00000320: 80f9 ba3c 992f 233e 2656 49bd 07a5 2bbe
00000330: 99cb d5bd b6e6 103d cdcb 60be 1832 bdbe
00000340: f2ac f73b a718 49be 4c81 55be da73 32bd
00000350: 4f57 3dbd 3352 233d ff6e 4fbd 4ac5 f7bc
00000360: 599a b1bd ce3b 45bd 96b2 b5bc ce33 603c
00000370: 9f4a 30be f9f6 a2bd 9cd7 773c f578 01be
00000380: 8946 483e b8bf 143e cd58 053e 5331 bfbc
00000390: 572a 6b3d 576b 313e 37cd 2ebc e41b 66be
000003a0: 3ba4 a0bd 199b 50be 5e99 953d 67e7 86bd
000003b0: 069d b1bc b38b cebd 0218 2b3d 225f 783c
000003c0: b6b3 05bd cba6 6139 7dbb 6bbd 7a0f 0f3e
000003d0: 2bee 303e 6036 1bbd d956 a33d 3413 1a3d
000003e0: 48e6 9ebb ebd0 25be bb54 80be 2341 233e
000003f0: dbbf 8fbd 3120 c63d dae0 6a3e ccac d4bd

convs.2.bias f4 [10]
-0.58292514 -0.5710436 -0.45325842 -0.20027758 -0.63900894 -0.080209166 -0.436095 -0.56339073
-0.5817084 -0.4667855
00000000: 953a 15bf ea2f 12bf 7d11 e8be 9115 4dbe
00000010: 1796 23bf b444 a4bd d847 dfbe 603a 10bf
00000020: d7ea 14bf 82fe eebe

fc.weight f4 [34, 30]
-0.7196175 0.59478724 0.1998882 0.12805305 0.42771575 -0.6048478 0.5186509 -0.21069172
-0.2027853 -0.75842893 -0.5168303 -0.12708071 0.4771014 -0.6904136 -0.26419544 0.5154476
-0.015824536 0.0023310343 -0.49925902 0.48621562 -0.12991689 -0.07026365 0.0565108 0.9926734
-0.039667483 0.5352854 0.34980538 -0.24361509 -0.10102885 -0.70416176 0.19106013 0.4956306
0.19024152 -0.17604567 -0.5693291 0.55806035 0.57094383 -0.9354466 -0.15931039 0.33382994
-0.17537457 -0.11925896 0.5886271 0.4040149 0.28659722 -0.36262614 -0.027417962 -0.014016127
0.30291998 0.1544296 -0.58943164 -0.24664304 0.062753804 -0.45574722 0.042033564 0.44811696
0.76146644 0.030121543 -0.11363359 -0.011952189 0.023882588 -0.8586461 0.18351774 -0.22626744
0.70289147 -0.44811833 -0.7761077 -0.08105211 -0.44760212 0.26910144 0.1998487 -0.011715872
-0.56404823 0.20765969 -0.096363835 -0.2955381 -0.029305141 0.06370722 0.098636165 0.6194638
0.75013596 0.8554082 0.031796295 -0.75727874 0.16239673 -0.80307484 -0.72251177 0.05067106
-0.9647695 0.67394084 0.30048618 -0.6124226 0.048310086 -0.23212382 -0.30363634 -0.48625195
-0.2617173 -0.7217109 0.47945306 -0.4074973 -0.37951973 0.08700202 0.36306816 -0.14634015
-0.74990886 -0.64353365 0.12866211 0.06610533 0.8364537 -0.22285952 0.44959003 0.14301942
-0.0104539655 -0.20581107 0.038116857 -0.7179763 0.3028454 0.41489547 -0.035531837 -0.44677323
-0.3490609 -0.6913371 -0.32264593 -0.5565085 -0.81467277 -0.44497296 -0.117687725 -0.4800663
0.28069398 -0.15801066 -0.249546 -0.02610608 -0.64650196 -0.43118525 0.041106068 0.5303139
-0.38195503 0.069592975 -0.59411466 0.6234959 -0.027508954 0.2994054 -0.1134128 -0.31938508
0.13316366 0.66779023 0.5283369 0.025545996 0.35886666 0.7554616 0.4282037 -1.2168539
0.022554992 -0.12136679 0.35846668 0.4969798 -0.5673698 0.15918763 -0.7407366 -0.02511575
0.32432678 -0.10228243 -0.2830082 -0.25329164 -0.219032 0.09516064 -0.171533 0.025139794
0.3661903 -0.25546625 0.56018436 -0.5437196 0.042252563 0.46682402 0.093973525 0.51017743
0.71528554 -0.31505278 0.37916538 -0.84563094 -0.13439259 -0.4946166 0.21224047 -0.20359729
0.261369 -0.5916416 0.10370577 0.6293535 -0.35212648 0.60627544 0.12772477 -0.03832339
0.18169737 -0.5534119 0.1356104 0.15814131 -0.1678817 -0.21113694 0.60392433 -0.24820115
-0.17417054 -0.4724741 0.012676705 -0.24851748 -0.2625803 -0.761662 -0.53506184 -0.22624852
-0.117125176 -0.4267707 -0.39195207 0.44134623 -0.3732194 -0.104186445 -1.2358512 -0.66989887
1.1824025 0.6490045 0.68202627 -0.25066215 0.3479501 0.08609435 -0.0597976 0.66305274
0.34528798 0.53289324 0.023734132 0.014085726 -0.50692654 -0.4039126 -0.2538679 0.44877028
-0.008776207 -0.39461824 -0.34044868 0.7336137 -0.6146119 0.08107061 -0.33879408 -0.29098564
0.20661066 -0.27077293 -0.2506629 0.0886691 0.19288355 -0.36519542 0.49101105 -0.49672073
0.22463584 0.31230465 -0.7152147 -0.39133698 -0.5383644 0.1020775 -0.52708983 0.17693894
00000000: da38 38bf fa43 183f 7eaf 4c3e 5720 033e
00000010: 8ffd da3e 4ed7 1abf 4ec6 043f 92bf 57be
00000020: f3a6 4fbe 6628 42bf fe4e 04bf 7221 02be
00000030: a246 f43e f2be 30bf a044 87be 60f4 033f
00000040: 75a2 81bc 44c4 183b e19e ffbe 41f1 f83e
00000050: ef08 05be 63e6 8fbd de77 673d d81f 7e3f
00000060: 5f7a 22bd 7708 093f b119 b33e 3c76 79be
00000070: 37e8 cebd f243 34bf 44a5 433e 4bc3 fd3e
00000080: acce 423e 5145 34be 8dbf 11bf 0bdd 0e3f
00000090: 6029 123f 6e79 6fbf 4322 23be c2eb aa3e
000000a0: 6495 33be 0b3e f4bd 44b0 163f 0adb ce3e
000000b0: dfbc 923e 22aa b9be a29b e0bc e6a3 65bc
000000c0: 5418 9b3e cb22 1e3e fee4 16bf fe8f 7cbe
000000d0: 1185 803d b357 e9be 632b 2c3d 966f e53e
000000e0: 77ef 423f 74c1 f63c bab8 e8bd 1dd3 43bc
000000f0: 6ba5 c33c 3bd0 5bbf 13ec 3b3e a7b2 67be
00000100: b2f0 333f c46f e5be ffae 46bf a6fe a5bd
00000110: 1b2c e5be aac7 893e 23a5 4c3e eef3 3fbc
00000120: 7765 10bf bea4 543e 675a c5bd c550 97be
00000130: 5611 f0bc ee78 823d c201 ca3d 2e95 1e3f
00000140: e908 403f 08fc 5a3f d53c 023d 05dd 41bf
00000150: 544b 263e 5096 4dbf 88f6 38bf 758c 4f3d
00000160: 22fb 76bf 6387 2c3f 53d9 993e bac7 1cbf
00000170: cce0 453d deb1 6dbe 3976 9bbe 04f6 f8be
00000180: cfff 85be 0cc2 38bf df7a f53e 7ca3 d0be
00000190: 6950 c2be 1d2e b23d 12e4 b93e 31da 15be
000001a0: 07fa 3fbf 9fbe 24bf 00c0 033e 3b62 873d
000001b0: d421 563f 4935 64be aa30 e63e af73 123e
000001c0: 1c47 2bbc 23c0 52be 6c20 1c3d 4bcd 37bf
000001d0: 8d0e 9b3e 2e6d d43e d589 11bd 76bf e4be
000001e0: 1cb8 b2be 78fb 30bf d931 a5be 5777 0ebf
000001f0: 658e 50bf 7fd3 e3be 4306 f1bd 40cb f5be
00000200: 1fb7 8f3e 8ccd 21be fd88 7fbe 6bdc d5bc
00000210: 2781 25bf 50c4 dcbe d65e 283d a7c2 073f
00000220: 9c8f c3be c386 8e3d e617 18bf 6d9d 1f3f
00000230: 755a e1bc aa4b 993e f844 e8bd 7186 a3be
00000240: 0e5c 083e 4df4 2a3f 1641 073f d645 d13c
00000250: 5fbd b73e ee65 413f 843d db3e dec1 9bbf
00000260: 3fc5 b83c 278f f8bd f288 b73e 2374 fe3e
00000270: 263f 11bf 1502 233e eaa0 3dbf 8cbf cdbc
00000280: 290e a63e 7379 d1bd 73e6 90be 71af 81be
00000290: ed49 60be 95e3 c23d 59a6 2fbe f8f1 cd3c
000002a0: 4c7d bb3e 79cc 82be 3e68 0f3f 3531 0bbf
000002b0: 0611 2d3d 8f03 ef3e 3175 c03d fd9a 023f
000002c0: f41c 373f 994e a1be f721 c23e 457b 58bf
000002d0: 369e 09be 633e fdbe 9155 593e cf7b 50be
000002e0: 28d2 853e d375 17bf b163 d43d 501d 213f
000002f0: ec49 b4be de34 1b3f 48ca 023e fdf8 1cbd
00000300: e00e 3a3e 67ac 0dbf 74dd 0a3e ccef 213e
00000310: 2ee9 2bbe 4834 58be c99a 1a3f 7128 7ebe
00000320: c359 32be 20e8 f1be f4b1 4f3c 5e7b 7ebe
00000330: ed70 86be 48fc 42bf d0f9 08bf b1ad 67be
00000340: 53df efbd b081 dabe f1ad c8be 22f8 e13e
00000350: 9d16 bfbe b45f d5bd 5f30 9ebf 7e7e 2bbf
00000360: f758 973f 2925 263f 4699 2e3f ca56 80be
00000370: 8426 b23e 3c52 b03d 54ee 74bd d3bd 293f
00000380: 96c9 b03e b16b 083f 156e c23c d1c7 663c
00000390: f0c5 01bf a2cd cebe f9fa 81be 38c5 e53e
000003a0: 15ca 0fbc 670b cabe 4a4f aebe 1cce 3b3f
000003b0: 3557 1dbf 5908 a63d 6b76 adbe 12fc 94be
000003c0: bf91 533e c0a2 8abe e356 80be 2598 b53d
000003d0: 4483 453e e5fa babe cd65 fb3e 2e52 febe
000003e0: f006 663e 65e6 9f3e 5018 37bf 525d c8be
000003f0: 40d2 09bf 020e d13d 5cef 06bf 7b2f 353e

fc.bias f4 [34]
-0.22211643 -0.015218276 0.005349095 0.14941332 -0.040960822 -0.2593771 -0.1077515 0.1083687
-0.49406025 0.069766626 0.117633656 -0.051046807 0.1754751 -0.17189321 -0.24187332 -0.3430162
-0.09037298 0.050909724 0.22496699 0.07843114 0.07650864 -0.23104678 0.047416247 -0.04107708
0.0025219237 0.03704958 -0.30692518 0.23261963 -0.32261637 -0.23504603 -0.015312174 -1.9273533
-0.30067292 -0.24386132
00000000: 7d72 63be 1356 79bc 7647 af3b ceff 183e
00000010: 89c6 27bd 13cd 84be d2ac dcbd 69f0 dd3d
00000020: 77f5 fcbe cee1 8e3d eae9 f03d 7516 51bd
00000030: bfaf 333e c604 30be a4ad 77be d29f afbe
00000040: 7815 b9bd b786 503d bf5d 663e 81a0 a03d
00000050: 90b0 9c3d 8797 6cbe 8a37 423d 7140 28bd
00000060: dc46 253b 4dc1 173d 4c25 9dbe d733 6e3e
00000070: f92d a5be e8af 70be eadf 7abc 83b3 f6bf
00000080: cdf1 99be c8b6 79be
