data/TextCNN.v1.pt (torch_old, 164339 bytes, 8 tensors)

convs.0.weight f4 [10, 1, 2, 400]
000000 0a cb 1b 3e 98 24 12 3e 17 9c 0c 3e 82 32 09 3e
       0.15214172 0.14271772 0.13731419 0.13398173
000010 36 5b 1a 3e 1e 99 54 3d 3c 25 9a bc 2b 29 08 bb
       0.15073857 0.051903836 -0.018816583 -0.002077649
000020 96 a1 07 be 2a 57 ba bd 40 06 63 3e 80 16 0b bd
       -0.13245234 -0.090986565 0.22170353 -0.033957005
000030 c8 39 ec 3d 53 e8 fd bc 16 8f 27 3e c9 92 5d 3d
       0.115344584 -0.03099457 0.16363177 0.054095063
000040 7f ce c1 3b 20 65 c7 bd 49 23 cb bc e8 35 b9 3d
       0.005914509 -0.09736085 -0.024797099 0.09043485
000050 73 8c f3 bd 8c a1 75 3d 12 ed fa 3d 0c 1a aa 3d
       -0.11892023 0.059968516 0.12252249 0.08305749
000060 cb 7e f6 bd 85 44 bf 3d 25 66 d0 3d bb d4 da bb
       -0.120359026 0.09339241 0.101757325 -0.0066781915
000070 d7 c2 34 3d 3c 7f e0 3d bd bf e9 bd fb 00 c8 3d
       0.044131126 0.10961768 -0.11413524 0.09765812
000080 b2 ec e2 3c e6 85 a8 bd 1f 82 9e bd 20 06 7e be
       0.027700756 -0.08228664 -0.077396624 -0.24807024
000090 99 e6 66 bd 0a 65 69 bc e1 38 c2 bc b7 02 15 3e
       -0.05637226 -0.014245281 -0.023708763 0.14551817
0000a0 90 2e f7 bd e5 d6 26 3e c3 19 29 be 40 1a d5 bd
       -0.12069428 0.16292913 -0.16513734 -0.104053974
0000b0 77 c9 a7 bd 24 bb 2b 3e a1 cc 0f be ef e3 02 ba
       -0.08192723 0.16770607 -0.14042903 -0.0004993071
0000c0 d5 2a 1d bc 69 63 38 bd 3c b7 58 3e 75 4c 1c 3d
       -0.0095927315 -0.04501668 0.21163648 0.038158853
0000d0 c6 63 e0 3d 8d 2a da bc 80 f7 29 be 2b db 14 3e
       0.1095653 -0.026631618 -0.1659832 0.14536731
0000e0 2e e2 49 bd 2e 46 69 be f5 dd 0c be d0 52 13 be
       -0.049287967 -0.22780678 -0.13756545 -0.14387059
0000f0 c9 7e 1b 3e d4 47 10 3d bb b0 e3 3d d4 e7 9f bb
       0.15185083 0.03522475 0.11117693 -0.004879931
000100 4a b9 35 be 23 9f 8c bd 7e 7f 7e 3e 20 06 de 3d
       -0.17746463 -0.068662904 0.24853322 0.10841012
000110 4a 0d 25 bc ae f9 84 3e cf 16 05 bc ce 2c 55 3e
       -0.010073969 0.2597174 -0.008123114 0.20817873
000120 09 62 53 be df 52 84 bd d6 0e 03 3e 63 91 2b 3d
       -0.20642866 -0.06461119 0.12798628 0.0418867
000130 8d c7 f2 3d 54 56 be bc e5 78 f0 3d b0 cd 33 3d
       0.118544675 -0.023234524 0.11741809 0.04389733
000140 04 d4 42 bd 8b d0 03 be ff 01 4c 3c b0 2a 80 bd
       -0.047565475 -0.12872522 0.012451648 -0.06258142
000150 7a f3 78 3d e2 d8 b0 bc d6 d8 e9 3d 73 ea f7 3d
       0.060779072 -0.021587793 0.11418311 0.121052645
000160 0d 24 59 3c 6b 32 f5 bd fd 1f 8d bd 8e 39 9f bc
       0.013253224 -0.11972507 -0.06890867 -0.019436624
000170 3b 01 45 bc 62 48 39 3e 19 ce f6 3d 6b 1f 67 3d
       -0.012024219 0.18094018 0.12051029 0.056426447
000180 76 34 32 3e 99 0d 48 3c a7 c5 59 3e 9c 5a 41 bd
       0.17402825 0.012210273 0.21266805 -0.047205552
000190 64 f7 80 3e ba 45 28 3e b4 b7 10 3d be 1c a9 3d
       0.25188744 0.16432849 0.035331443 0.08257435
0001a0 f0 02 b1 3c 6f a8 48 bd 11 d4 9b 3d c9 71 88 3d
       0.021607846 -0.048988756 0.07608808 0.06662328
0001b0 f5 2b 09 be 29 3f 88 3d b6 14 9f bc 1d cc 26 3c
       -0.13395675 0.06652672 -0.019419055 0.0101805
0001c0 98 b6 ec bd f3 30 e1 bd 4e 2c 27 bb 31 b3 b3 bb
       -0.115582645 -0.109956644 -0.0025508585 -0.0054840078
0001d0 87 2a 01 3e 43 4b e0 bd 4a d5 29 bd ac 34 16 3e
       0.12613879 -0.10951855 -0.041463174 0.1466853
0001e0 fb 6c fc 3d 6c 05 88 3d df 2b 11 3d dc 19 ee bd
       0.12325474 0.06641659 0.03544223 -0.11626026
0001f0 84 2f 12 3d 2b 41 0c 3d 2f cc 11 be af 30 1b 3e
       0.035689846 0.034241837 -0.14238046 0.1515529
000200 1d ad 45 bd 3d af bd 3d 27 d1 58 bd 67 4c 58 be
       -0.048260797 0.0926194 -0.05293384 -0.21122895
000210 5a da 29 bd 56 b6 ed 3d e7 86 fa 3d 8a dc 97 3d
       -0.041468002 0.116070434 0.12232762 0.07415111
000220 84 fe 22 be 90 af 00 3e 0f 33 1b bd f4 f4 b4 be
       -0.15917403 0.12566972 -0.03789049 -0.35343134
000230 1e 86 e7 bc f5 20 54 3d bb 00 9b bd 78 e4 e1 3d
       -0.028262194 0.051789243 -0.07568499 0.11029905
000240 64 7a 36 3d e3 36 2b be 97 e8 85 3d 5a 1b af 3e
       0.044550315 -0.16720156 0.065385036 0.34200555
000250 46 42 95 bd cf 27 80 be 49 bd b4 3a 11 68 f2 3d
       -0.07288031 -0.25030372 0.0013789322 0.11836255
000260 9c 83 fb bd de f6 56 3c c6 0b 70 bd 0c 6e 86 be
       -0.12280962 0.013120381 -0.058604978 -0.26255834
000270 79 29 00 3e f6 50 74 be 3b 57 72 3d bd 15 2d 3d
       0.1251582 -0.23859009 0.05916522 0.04225706
000280 b0 c5 01 bc 14 65 00 3d 0f ae d7 3d d7 6f b2 3d
       -0.0079206675 0.031346396 0.10531246 0.08712738
000290 cf 7c dd 3d cd cf 72 bd 3f 86 c2 3c aa d0 7b 3b
       0.10814821 -0.059280206 0.023745654 0.0038423934
0002a0 c9 0b 00 3e 32 6c 17 be f2 83 71 bd cb b8 92 3c
       0.12504496 -0.14787367 -0.058963723 0.017910382
0002b0 4b fe 1c bd 91 df a4 bd 41 c1 00 be 7f 41 e5 3d
       -0.03832845 -0.080504544 -0.1257372 0.11194133
0002c0 d9 2b 10 3d 02 bb bd 3d f4 16 71 3d ca da 58 bd
       0.035198066 0.092641845 0.05885978 -0.05294303
0002d0 bd 97 17 be 2e b1 e4 bd 25 f4 e1 bd 85 49 b9 bd
       -0.14803977 -0.11166607 -0.11032895 -0.09047226
0002e0 7a 81 83 3d 7a 6d d4 3d 3e 87 36 bd bc c7 9b bd
       0.0642118 0.103724435 -0.04456257 -0.07606456
0002f0 db 67 4f be 00 14 ac be 41 2a ec bd c4 cd 53 bd
       -0.20254461 -0.3360901 -0.11531497 -0.051709905
000300 51 33 b9 bd 16 cc 0a bd c8 99 1e 3d 3d 01 25 3e
       -0.09042991 -0.033886038 0.038720876 0.16113754
000310 a6 d5 e1 bb 71 75 de 3d 99 f6 dd 3d 5a 30 6a bd
       -0.006891924 0.10862244 0.108380504 -0.057175018
000320 ae 50 e8 3d bb ad c1 bc e0 65 7d 3d 31 3d 83 bc
       0.113435134 -0.023642411 0.061864734 -0.01602039
000330 32 14 08 3d 79 7f 9c bc 1b ea 8b 3c c7 f7 d5 bc
       0.033222385 -0.019103752 0.017079404 -0.026119126
000340 b8 71 bd bd f1 da 10 3e af e1 01 bd 70 5e 24 be
       -0.09250206 0.1414602 -0.03170937 -0.1605165
000350 f3 0b 7e bd 1e 3e bc 3d 0f 4a 17 3e 3f 2a 18 3e
       -0.062023114 0.091915354 0.14774345 0.14859866
000360 57 f8 ce bc 12 c3 32 bd 46 d9 8c bd 65 9f 33 3e
       -0.025264902 -0.043643065 -0.06877379 0.17541273
000370 d1 31 ba 3d 26 72 ea 3d d5 3b e1 3d 87 13 56 be
       0.09091533 0.11447553 0.1099774 -0.20905887
000380 06 1b 46 3e 6b 32 e9 bd 4f 4f f3 3d 9b 5e 24 3e
       0.19346246 -0.113865696 0.11880361 0.16051714
000390 43 05 8a 3d c5 99 36 3e c6 17 65 3d d4 3b bd bd
       0.06739285 0.17832096 0.055930875 -0.09239927
0003a0 89 7a ee 3d 0a 8a 55 3d ce 20 24 3e ee f4 9d bb
       0.116444655 0.052133597 0.16028139 -0.0048204577
0003b0 b1 4c 99 bd db aa 31 3d ec 70 f6 3c 16 28 09 be
       -0.07485331 0.04337583 0.030083142 -0.13394198
0003c0 f0 67 a1 3c 90 44 1d be d2 d2 13 3e 57 3b 06 be
       0.019702882 -0.15358186 0.1443589 -0.13108574
0003d0 24 68 fe 3d 62 da d8 3d f6 39 c5 bc 3d b8 a8 3d
       0.12422207 0.10588528 -0.02407549 0.08238266
0003e0 45 d8 e6 bd ac d1 15 bd ad 32 9f 3d 77 e2 32 3e
       -0.11271719 -0.03657691 0.077733375 0.17469202
0003f0 ca 94 4d be 6c 43 82 3e 19 83 21 3e b0 3f 0b 3e
       -0.2007629 0.25442064 0.15772666 0.13598514

convs.0.bias f4 [10]
000000 b4 1d 87 bf 8f c7 79 bf ac 7d 9f bf cd 7f 83 bf
       -1.055594 -0.9757013 -1.2460227 -1.0273377
000010 3b 7d 89 bf 80 05 79 bf c1 a4 3f bf 07 0d 5c bf
       -1.0741342 -0.9727402 -0.7486077 -0.8595738
000020 ce 50 7b bf bc 12 42 bf
       -0.98170173 -0.75809836

convs.1.weight f4 [10, 1, 3, 400]
000000 b4 df f5 3d 10 4c 1a 3e 04 34 10 bd 4e 82 15 be
       0.120055586 0.15068078 -0.035205856 -0.14600489
000010 98 1f 04 be 95 93 8b bc af 44 ed bd b7 3f 4f bc
       -0.12902677 -0.017038146 -0.11585366 -0.012649468
000020 1e 00 aa 3d 9f ad 36 be 64 ba a9 3e 5b 43 04 3e
       0.083008036 -0.17839669 0.33150017 0.12916319
000030 77 6b 02 3d 2a 19 63 bd 63 91 fd bd 98 d5 12 3e
       0.031840768 -0.05544392 -0.12381246 0.14339292
000040 19 9c 77 3d 5a 39 14 be dd b7 f2 bd 6f 70 e7 3c
       0.0604516 -0.14475003 -0.118514754 0.028251855
000050 e2 86 19 3d 75 be 41 bd dc 70 2a 3e 9e eb 8e bc
       0.03748215 -0.047300775 0.16644615 -0.017446335
000060 eb 97 d8 bb cb cb 7d 3b 83 f3 75 3d 48 b6 90 be
       -0.006609907 0.0038726206 0.060046684 -0.2826407
000070 08 0e 28 bd 1c 4b d1 3e 27 b8 6b 3d 28 2f 1b 3e
       -0.041029006 0.40877616 0.05754867 0.15154707
000080 26 50 9f bc c0 53 e3 bd fc dc 30 bd 0b 29 68 bc
       -0.019447397 -0.110999584 -0.043179497 -0.014169942
000090 88 c8 68 be 0b ef 6e 3e 24 56 2c 3d c6 e4 71 bc
       -0.22732747 0.23333375 0.042074338 -0.0147640165
0000a0 24 9d b1 be 75 67 0f be 82 24 c2 bd c8 09 3e 3c
       -0.346902 -0.1400431 -0.094796196 0.011599012
0000b0 c6 3c fd 3d c4 49 c7 3d b6 8d 99 3d f2 18 99 3d
       0.12365107 0.097308666 0.07497732 0.07475461
0000c0 bc da 32 bc b2 3b 97 bd 0b bc bf bc 14 09 8e 3d
       -0.010916408 -0.07384433 -0.023405096 0.06935325
0000d0 b3 30 d1 bc 5e 4e c6 3d 1a 94 19 3e 3b 9c 14 be
       -0.025535917 0.09682916 0.14997903 -0.14512722
0000e0 2d 6a f7 3d 4b 82 d3 3b ad f8 9b 3d f3 2d 1a be
       0.12080798 0.006454741 0.076157905 -0.1505659
0000f0 35 46 5e 3a 5e e4 fc bd 0f 0b 06 3d 9b 74 87 3d
       0.00084790896 -0.12348245 0.03272539 0.066140376
000100 e8 66 2a be 72 3c 52 3e c7 ef 57 3d d5 68 86 be
       -0.16640818 0.2053087 0.052718904 -0.26251855
000110 eb 70 82 bd 37 3c 99 3d ca 03 2d 3e cd dd cf 3c
       -0.06369194 0.07482188 0.16895977 0.025374318
000120 7c b1 99 3c 20 ee 90 3b 14 8c af 3c 5d 93 ab be
       0.018761389 0.004422918 0.0214291 -0.33510867
000130 0e 1e 25 3d 1c 9e 05 be cf 15 4d bb a2 2c 5d 3e
       0.040311866 -0.13048595 -0.0031293517 0.21599057
000140 02 2a 88 3e cd 10 cb bc 87 a4 08 bd 9e ff a9 3d
       0.2659455 -0.024788285 -0.03336003 0.08300708
000150 39 20 d8 bd 14 88 47 be f4 6a f4 3d 75 71 f8 3d
       -0.10553021 -0.19485503 0.11934462 0.12131015
000160 3c 68 22 3d f4 50 ff bd 67 8e b6 3d ce ab 11 3e
       0.039650187 -0.124666125 0.0891388 0.14225695
000170 a3 2b 95 3d 75 8c 2c be d9 7a 8b 3e c5 57 f4 3d
       0.07283714 -0.16850455 0.27242163 0.11930803
000180 be 8f bc bc 04 60 4e 3e eb 5e fe bb 26 67 52 bd
       -0.02301776 0.20153815 -0.00776278 -0.0513679
000190 cc 93 b2 bc 86 37 17 bd c8 1c 80 3b da c6 44 3e
       -0.02179899 -0.036918186 0.003909681 0.19216481
0001a0 38 92 57 bd 5b d4 0b be ae 60 48 3d 4f 92 8e bd
       -0.05262968 -0.13655226 0.048920326 -0.069615
0001b0 be 72 fe bd bc ec 62 3e ef d2 68 be 1e 66 fa bd
       -0.12424229 0.2216062 -0.22736715 -0.122265086
0001c0 c2 77 8a 3b fa 9d cf bd 5a 2c 98 3d b9 00 63 3c
       0.004225702 -0.101375535 0.074303344 0.013855153
0001d0 0e 40 b6 3d 8d f8 a2 3d 0b bb e1 3d 5b 3d 19 3e
       0.08898936 0.079575635 0.11022004 0.14964812
0001e0 7b a9 15 bc e6 b7 a8 3d 8f 73 32 3c 81 4c d9 bd
       -0.009134646 0.08238201 0.010891809 -0.10610295
0001f0 7b 89 7d 3d 04 16 94 3d f4 fb ae 3c b5 d2 81 3e
       0.06189869 0.07230762 0.021360375 0.2535607
000200 79 9b d9 bd 41 07 96 3b 0f c0 39 bd 48 bd 9b 3c
       -0.10625357 0.0045785015 -0.045349177 0.019011155
000210 39 b3 91 bd 9d e8 8c 3d 33 8e f5 3d db 76 17 be
       -0.07114262 0.06880305 0.11990013 -0.14791434
000220 bd 17 19 3c e8 6a 57 3d 2d d0 50 be c8 1d a7 bd
       0.009344039 0.052592188 -0.20391913 -0.08159977
000230 65 ed a0 bd be 49 32 3e 04 5d 12 be f5 b6 41 bd
       -0.078577794 0.17410943 -0.14293295 -0.047293622
000240 c4 b2 13 be ff 47 07 ba ec 29 2a 3b dc 37 b8 bd
       -0.14423662 -0.00051605696 0.0025964929 -0.08995029
000250 9f 8e 6a bd ef 8a 68 bc 5d dd 88 3d df 1a f3 3d
       -0.05726492 -0.014193281 0.06682847 0.1187036
000260 fa 83 17 be 7f 00 43 bd 6b c4 7a 3e f4 77 fe 3d
       -0.14796439 -0.047607895 0.2448899 0.12425223
000270 2d 4e ce 3c 9c cd a2 bc 08 ab e8 bd df 4d 8c bc
       0.025183761 -0.019873433 -0.113607466 -0.017126976
000280 80 b1 f9 bb 0c d3 f4 3d d1 90 13 3d f5 54 06 bd
       -0.0076200366 0.119543165 0.03602678 -0.032795865
000290 2e c8 e4 3d b5 52 94 bc 5d bc 9d 3a 3e eb 1b 3e
       0.11170994 -0.018105844 0.0012034286 0.15226457
0002a0 2c c3 8c 3d 8b 63 cb bc 3f b9 06 3e e3 f3 2f bd
       0.068731636 -0.02482774 0.13156603 -0.042957198
0002b0 8b b9 1e 3d 02 09 19 bc 77 00 37 be 6b 8f c6 bd
       0.038751166 -0.009340527 -0.17871271 -0.096953236
0002c0 35 64 6b bc e6 81 6d 3d 6c 20 1b 3e c3 54 74 3c
       -0.014367153 0.05798521 0.15149087 0.014912787
0002d0 92 f5 d2 bc d7 90 99 bd cf dc 99 bd 84 b3 be bc
       -0.025751863 -0.07498329 -0.07512819 -0.02327896
0002e0 a2 0a e1 bd 2d f5 49 3e 29 32 fa 3c 47 e1 72 bd
       -0.10988356 0.19722433 0.030541496 -0.059296872
0002f0 96 13 8e bd b7 63 85 be ac 52 96 3c 53 5d 07 be
       -0.069373295 -0.2605264 0.018349968 -0.13219194
000300 ca 67 48 be 39 b1 69 bd 11 47 14 3e 71 13 fa 3c
       -0.19570842 -0.05705378 0.14480235 0.030526849
000310 0d 70 38 bc d5 a2 a2 bd 44 46 82 bc 67 89 b0 3d
       -0.011257184 -0.07941214 -0.015902646 0.086199574
000320 7c 3f 93 3e 83 1f 38 3e 97 a1 88 3c ef d0 86 3e
       0.28759372 0.17980771 0.016678615 0.2633128
000330 c8 52 52 3e b9 55 1f be f2 09 05 be 83 c0 8d 3c
       0.20539391 -0.15560044 -0.12992075 0.01730371
000340 d8 96 2d be 28 ed 01 3d 36 90 0f be 81 06 f6 bc
       -0.16952074 0.03172031 -0.14019856 -0.030032398
000350 62 18 e8 3d ec 69 7a be 5d 5f af 3d 0e a8 04 3e
       0.11332776 -0.24454468 0.08563111 0.12954733
000360 e5 39 09 bd 8c 43 7a be 74 76 cf bd 81 e0 82 bd
       -0.03350248 -0.2443983 -0.10130015 -0.06390477
000370 a8 e6 a2 3d db 93 1e 3e 8e 93 15 3e f4 98 16 be
       0.079541504 0.1548609 0.14607069 -0.14706784
000380 c2 b2 f4 3d d4 55 05 be 1f 3e 0d 3e 55 71 7c bc
       0.11948158 -0.13021022 0.13793229 -0.01540788
000390 be 8b 76 bb 25 20 e5 3d 00 53 6a 3a 9e b8 85 3c
       -0.0037619914 0.11187772 0.00089387596 0.016323384
0003a0 eb 8a 81 bb ab 6d 55 be 40 c6 82 be e7 9d 9b 3d
       -0.003953328 -0.20842616 -0.25541878 0.07598477
0003b0 4e be 46 3c a2 a8 50 be 74 ca 7d be 61 08 1e bd
       0.012130333 -0.20376828 -0.24784261 -0.03858221
0003c0 03 b9 8c 3d 7c 5f b1 3c 92 67 93 bc 74 d5 d8 3d
       0.06871226 0.021651976 -0.017993722 0.10587588
0003d0 d0 94 e9 3d 98 69 77 3e bf e9 32 bd fd 5c 80 bd
       0.11405337 0.24161375 -0.04367995 -0.06267736
0003e0 84 e6 7a bd 67 27 9a 37 7b 39 0b be 8f 32 c7 bd
       -0.061254993 1.8376579e-05 -0.13596146 -0.0972644
0003f0 75 35 bf bc f0 fa da 3b 15 c5 81 3d 86 f6 8d 3d
       -0.02334092 0.006682746 0.063364185 0.06931786

convs.1.bias f4 [10]
000000 a8 bc 5a bf 31 2f 3c bf 6b 36 3b bf 58 a0 61 bf
       -0.85444117 -0.7350951 -0.7312991 -0.8813529
000010 2a 39 1f bf de 64 0b bf b0 c5 fa be ec 79 fb be
       -0.621966 -0.54450786 -0.4897895 -0.49116457
000020 05 11 2d bf 79 0d 6c bf
       -0.67604095 -0.9220806

convs.2.weight f4 [10, 1, 5, 400]
000000 f5 88 dd 3d d9 15 d7 bd a9 24 b3 3d 86 6e 51 be
       0.10817138 -0.10502214 0.08747227 -0.20452318
000010 aa a9 b0 bd f4 53 03 be 7b 10 f8 bd c2 be b8 3b
       -0.08626111 -0.12824994 -0.121125184 0.0056379745
000020 dd d4 a6 3d bd d4 ff ba 2f ca 5b bc c5 c4 f8 bd
       0.08146069 -0.0019518357 -0.013414904 -0.12146906
000030 75 f5 24 3e 80 4e 3e 3c 6e dc e2 bd f6 95 b6 bd
       0.1610926 0.011615396 -0.110772 -0.089153215
000040 32 0c b3 3d 61 66 f5 3c 55 69 22 bd f7 e1 f9 3d
       0.087425604 0.029956045 -0.039651234 0.122013025
000050 9e 7e ce bd 34 98 39 bd a5 8b 21 3e 1f ca 67 bd
       -0.10082744 -0.045311168 0.15775926 -0.056589242
000060 c7 13 a2 bd 88 97 9a bd d3 d1 e1 3d 26 d3 09 be
       -0.079139285 -0.075484335 0.11026349 -0.13459453
000070 17 85 e8 bc b1 23 30 bd 1f 52 2e be da c1 24 3e
       -0.028383775 -0.043002788 -0.17023514 0.16089574
000080 a0 07 5a bd ff 28 18 3d 7d 8b c6 3b 13 b6 bf bc
       -0.053229928 0.037148472 0.006059109 -0.02340225
000090 69 89 db 3c ee 88 fc 3d 41 94 63 be 80 c8 81 be
       0.02679892 0.12330805 -0.22224523 -0.25348282
0000a0 2a 1d 07 bd f1 78 ec 3d ee b3 0e be c4 5e 90 3d
       -0.032986797 0.11546505 -0.13935825 0.07049325
0000b0 31 b6 8f 3d e3 74 fd bd b3 87 c6 3d e2 40 2a be
       0.07017172 -0.1237581 0.09693851 -0.16626313
0000c0 44 a4 2c 3e 97 af fc bd 18 f7 1a 3e ac 63 9b bc
       0.16859537 -0.123381786 0.15133321 -0.018968426
0000d0 15 61 bd bd bd 0d 9f bc 60 fe ba bd cb 63 a6 3d
       -0.092470326 -0.01941573 -0.091305494 0.08124503
0000e0 16 8e 3c 3d 52 c6 32 3d 04 46 63 3b ee 79 a2 3d
       0.04603394 0.043646164 0.0034679184 0.079334125
0000f0 85 6f 3e bd 6b f7 31 3e e9 7b fe 3d 40 33 f6 3d
       -0.046493072 0.17379539 0.12425978 0.12021494
000100 12 26 df 3d d3 74 eb 3d 01 ed 5a 3d d5 7d e0 3c
       0.10895933 0.11496892 0.05344868 0.027403751
000110 db 99 d8 bd 51 64 32 3d 84 c8 34 3e 04 03 c9 3d
       -0.105762206 0.0435527 0.17654616 0.09815028
000120 d1 d1 99 bd 0b 0d 58 3e 90 74 07 3c a5 52 a3 3d
       -0.075107224 0.21098725 0.008267537 0.079747476
000130 77 fa 02 3d 83 87 71 bd ba 03 1d be c1 a7 45 bc
       0.031977143 -0.058967125 -0.15333453 -0.012063921
000140 7e 78 4f 3d 0a 07 d5 bd 4a e7 6c bd a1 99 29 be
       0.05065202 -0.10401733 -0.057837762 -0.16562511
000150 bc 03 cb bd 33 47 39 3c 01 e8 13 3e 4a 9a 80 3c
       -0.09912822 0.011308479 0.14443971 0.01569857
000160 30 2c 1d be 56 85 83 3e 17 38 0d be 88 c3 1b be
       -0.15348887 0.25687665 -0.13790928 -0.15211308
000170 9d 3c 3a 3d c3 2e 65 bc de 08 05 3e a4 b5 c7 3d
       0.04546796 -0.0139882 0.12991664 0.09751442
000180 b1 0b 0f bd 6d b4 e9 3d ed c6 52 bd 36 6b b8 bd
       -0.03492326 0.114113666 -0.05145924 -0.09004824
000190 79 5b 85 3d d5 4f 51 3d 29 4b 20 3e f8 d6 50 bc
       0.06511588 0.051101524 0.15653671 -0.012746565
0001a0 36 54 62 3d 9b 04 1d 3d e7 11 5d bd bf 72 3b be
       0.05525609 0.03833447 -0.05397215 -0.18305491
0001b0 c5 9b 8f be 80 bc b6 3e b2 2c f9 3c 91 64 09 be
       -0.2804853 0.3569069 0.03041682 -0.1341727
0001c0 5f 56 cf bd aa 53 13 b9 08 87 8f be 35 72 19 bc
       -0.10123896 -0.0001405018 -0.28032708 -0.009365608
0001d0 f6 02 64 3c 33 66 d6 3d b9 92 0c bd 94 3b d7 bd
       0.013916722 0.10468712 -0.034319613 -0.105094105
0001e0 5e be 1f be 2c dc 8d 3d 2e fb 5a 3d 4f f2 98 bd
       -0.15599963 0.0692676 0.0534622 -0.07468092
0001f0 97 4c 26 bd d8 12 09 3e 82 1e 23 3e 7f 03 a3 bd
       -0.040600386 0.13386095 0.15929607 -0.07959651
000200 81 91 88 3d 4c 4f 67 3c 2f 44 48 3e 97 65 5d be
       0.06668378 0.014118027 0.1955726 -0.21620785
000210 72 7a 39 be 97 b9 e3 3d 31 83 c1 3d 66 15 35 be
       -0.18113115 0.11119383 0.09448851 -0.17683944
000220 96 55 e6 3d 4d b8 10 3e 8b 00 3a bd 8a 01 8b bd
       0.11246793 0.14132805 -0.045410674 -0.06787403
000230 51 11 13 3e 55 16 61 3e 3c 79 b6 bd 02 55 82 3e
       0.14362074 0.21981175 -0.08909842 0.2545548
000240 a5 68 dd 3d de fd 87 3d 08 6e 72 3d ca 2b d5 3d
       0.10810975 0.06640218 0.059186965 0.10408743
000250 bb 9d c2 3d 6c 01 a4 3d 82 56 ce bd ac 39 1e 3e
       0.09502741 0.08008084 -0.10075094 0.15451688
000260 ab eb 5e bd d7 98 a8 3d b9 c6 e0 bd 90 6b e7 bd
       -0.05442397 0.08232277 -0.10975403 -0.11299813
000270 da 9f b7 3d 28 c1 27 bd 1f 2b 86 bd fc bb 37 3e
       0.08966036 -0.040955693 -0.065511934 0.17942804
000280 c2 98 9e bd 28 41 0e 3e 4d 8f 96 bd f4 fc ca bd
       -0.0774398 0.13892043 -0.07351551 -0.09911528
000290 9d c0 f7 bd 98 85 c7 be 4b 1a 4a bd a5 d3 16 3e
       -0.12097285 -0.3896911 -0.04934148 0.14729173
0002a0 d0 b7 4e 3e 35 e0 a8 bc c6 aa 85 3e de 54 a8 bd
       0.20187306 -0.020614723 0.26106852 -0.08219312
0002b0 35 96 e5 3c ee 33 29 3e c4 88 03 3c f5 6e 0f 3e
       0.028025726 0.16523716 0.008028213 0.1400717
0002c0 df ad a4 3b 0c d6 2f be 80 9d 15 bd c6 5f 29 bd
       0.00502561 -0.17171496 -0.036527157 -0.041351102
0002d0 a5 62 e2 bc d3 f5 55 3d fd f7 82 3c 51 cd 0a 3e
       -0.027634928 0.05223639 0.01598739 0.13554884
0002e0 aa b8 6b be 79 2a bd 3d 0b c0 f2 3d b0 9a fe bd
       -0.23019662 0.09236617 0.118530355 -0.12431848
0002f0 98 e0 92 bc a2 de d5 bd 31 c0 b2 3d 2b 98 ac 3d
       -0.01792936 -0.104428545 0.08728064 0.08427461
000300 97 e7 fd bd 53 64 78 bc df 68 ee 3d e5 b7 0f 3d
       -0.12397688 -0.015160638 0.11641096 0.035087485
000310 08 02 53 3d fa a1 f2 bc 3b c0 a6 3d e7 df 0e 3e
       0.05151561 -0.029618252 0.08142134 0.139526
000320 5d 85 37 bd 67 cb 8c bd 73 23 dc 3c fb 13 81 3d
       -0.04480492 -0.068747334 0.026872372 0.06302639
000330 d6 7e 5b 3d 01 09 14 3c 2d 20 ff bd b3 5f 2d 3e
       0.053587757 0.00903535 -0.12457309 0.16931038
000340 e7 ff 2a bd 77 99 76 3e a8 91 a2 bc 16 1c 88 3d
       -0.041747954 0.2408198 -0.019844845 0.06645982
000350 06 de ae bd 01 26 32 be f7 bd 0c be ed 64 b0 3b
       -0.08538441 -0.1739731 -0.13744341 0.005383125
000360 51 7c 3f 3d 1d 93 d3 bd ce 68 23 bd 87 a5 85 3b
       0.046749417 -0.10330794 -0.03989487 0.0040785703
000370 f0 1b b7 3c fe 96 c7 3d 75 34 06 3e 84 4d 11 be
       0.022352189 0.09745596 0.13105948 -0.14189726
000380 bb dc 2d 3d c2 cd 1c be 7c 19 0c 3e 91 27 41 3d
       0.042446833 -0.15312865 0.13681597 0.047156874
000390 f5 18 06 be 41 52 46 3e 01 65 cb 3d ec 4b 1d 3c
       -0.13095458 0.19367315 0.09931374 0.009600621
0003a0 15 a7 0b be 94 22 a2 3c 79 88 9a bb b3 91 dc bd
       -0.13637955 0.019791879 -0.004715976 -0.107699774
0003b0 1b 72 fc bd e7 19 fa ba 4f f8 a5 3b 94 12 0a 3e
       -0.123264514 -0.0019081206 0.005065001 0.1348365
0003c0 c6 99 10 3e 32 39 30 3d 14 fd 22 be 3e 22 2e bd
       0.1412116 0.043023296 -0.15916854 -0.042513125
0003d0 2d 91 1f 3e dc 25 75 3d 2e d9 8a be 1c da 32 3d
       0.15582724 0.05985056 -0.2711882 0.043665037
0003e0 96 98 d8 3d b6 57 cb 3d c0 12 01 3e 47 77 0e 3d
       0.105759785 0.09928839 0.12604809 0.03478172
0003f0 fb a1 4e 3e da 20 79 3d da b4 29 3e c8 6c 6d bc
       0.20178978 0.060822345 0.16572896 -0.0144912675

convs.2.bias f4 [10]
000000 ff b5 fc be 73 91 20 bf cc 67 75 bd 9d f1 98 be
       -0.49357602 -0.6272194 -0.05991344 -0.29871836
000010 aa 2b 3d bf 58 93 13 3d 28 bc 8f be 7a de 00 bf
       -0.7389475 0.03602919 -0.2807324 -0.5033947
000020 b6 b2 ae be b1 c0 ce be
       -0.3412072 -0.40381387

fc.weight f4 [23, 30]
000000 a0 94 cf be af f3 17 3f 34 fa 0b be a4 75 1a 3f
       -0.4054308 0.59356207 -0.13669664 0.60335755
000010 9c bf 2c 3f 31 9b 04 be 22 09 0f 3f fe 2a 5b bd
       0.6747987 -0.12949826 0.5587331 -0.053507797
000020 e0 cf 01 3e 0f 62 56 bf 3f 59 15 3e e0 c5 44 be
       0.12676954 -0.83743376 0.14584826 -0.19216108
000030 54 48 be 3d f3 c3 36 bd 03 9a af 3e 04 92 9f 3c
       0.09291139 -0.044620465 0.3429719 0.019478805
000040 be 7b 1a 3e 55 16 67 3d 33 65 84 3a d5 20 c5 3d
       0.15086266 0.05641778 0.001010096 0.09625403
000050 85 c4 ee be e7 02 b6 bd bf 5d 20 3e c4 0f c2 3e
       -0.46634308 -0.08887272 0.15660761 0.37902653
000060 96 71 bc bb 24 3e 83 be 81 88 f3 3e c5 3d cf be
       -0.005750845 -0.25633347 0.47565082 -0.40476814
000070 82 0a 7f bd 8a fe 5e bf 14 bc 2a 3e 4b 57 c3 3e
       -0.06226588 -0.87107146 0.16673309 0.38152537
000080 f5 96 d5 3e 15 9e a2 be 69 7b 71 3e 49 98 33 3f
       0.41716734 -0.31761232 0.23582233 0.70154244
000090 6f b4 f6 3e db 73 28 bf 24 69 89 bc 2b 69 32 3d
       0.48184535 -0.6580178 -0.016773768 0.043557327
0000a0 19 bb 4d 3f 1d 96 37 bd 56 7a 49 3e f1 fa 0c 3e
       0.80363613 -0.044820894 0.19675574 0.13767602
0000b0 be 04 de 3e 07 73 00 3e 7f 8b a8 be cd 60 be bd
       0.43362993 0.1254388 -0.32918927 -0.09295807
0000c0 2a 4a 81 3e bb f8 7e 3d d1 78 4d 3e 5a ae 8b 3d
       0.25251895 0.062248927 0.20065619 0.06820364
0000d0 9c 9d 4e 3d b2 11 38 bf 74 3b e1 bb 3d 50 62 be
       0.050443277 -0.71902 -0.0068735424 -0.22100921
0000e0 9e 8b 33 3f 32 c7 0a 3d 41 8e ed be 35 36 30 3e
       0.70134914 0.033881374 -0.46397594 0.17208178
0000f0 5c 60 5f bf 7d 5b 3b bf 3b d9 fd be 54 c2 bc bd
       -0.8725641 -0.73186475 -0.49579796 -0.09216753
000100 47 18 67 3f 86 66 e6 be 2f 46 52 bf b0 8e ad 3d
       0.9027142 -0.45000094 -0.8213834 0.08474481
000110 7f 58 84 bd 46 fd b4 3e d4 37 b9 bd b2 8b e9 bc
       -0.06462192 0.35349482 -0.090438515 -0.028508995
000120 aa 0b 12 bd 53 1e c2 3e cf db e8 be 83 9b fe bd
       -0.035655655 0.3791376 -0.454802 -0.12432005
000130 df 35 37 3d 17 f9 f5 3d e0 e6 ad 3e cf 67 1e 3e
       0.04472911 0.12010401 0.33965206 0.15469287
000140 fc fa 86 3f ec 48 1f 3e 36 04 70 3e cb c0 b2 be
       1.0545344 0.15555161 0.23439106 -0.34912714
000150 9b 3f 0d 3e 42 4d cd be e4 8d cb be d3 04 41 3d
       0.13793795 -0.40098006 -0.3975669 0.04712374
000160 60 fa 2f bf 90 ab d3 3e bb 41 9b 3e ae 5d 19 bf
       -0.68741417 0.4134183 0.30323586 -0.5990857
000170 d1 6c 83 be 25 f4 55 bf 72 df b2 be f4 ec b8 be
       -0.25668958 -0.8357566 -0.349361 -0.3611828
000180 7b d2 81 be 80 d8 05 bf 9c e9 33 3d cf cf 8e bc
       -0.25355896 -0.5228348 0.04392396 -0.017433075
000190 a8 9d 20 3f c7 aa 69 3d 37 ac de be 74 9f f9 be
       0.62740564 0.05704763 -0.43490764 -0.48754466
0001a0 ed 09 e7 be b7 a8 92 be 7f ff 4b bc 50 80 7f bc
       -0.4512476 -0.28644344 -0.012451052 -0.015594557
0001b0 d8 cb ed 3e 70 60 0f bf be 73 39 be 6a 2e 09 bf
       0.46444583 -0.56006527 -0.18110558 -0.5358645
0001c0 8b 76 bf bd 91 25 3e bf 7d 7f 16 bd db 47 9f 3e
       -0.09348782 -0.7427607 -0.036742676 0.3110951
0001d0 98 19 13 3e c1 a2 91 3e 79 c0 d7 3d c9 b5 54 3d
       0.14365232 0.28444484 0.10534758 0.051931176
0001e0 a4 1f 05 3e 8d a3 2e be d9 e7 83 3d 5a 89 8a bc
       0.13000351 -0.17054577 0.06440706 -0.016911197
0001f0 a2 59 a4 be 5a c7 01 bf f0 fc 3d bf 7f 32 f0 be
       -0.32099634 -0.5069481 -0.74214077 -0.46913525
000200 96 03 2f be 92 87 17 bf 26 cc 16 be 84 5a 3a bd
       -0.17091212 -0.5919124 -0.14726314 -0.04549648
000210 fa ea 9f be 8f 64 be 3d 81 8e 85 3e ef 1f 94 3e
       -0.3123396 0.09296524 0.26085284 0.28930613
000220 29 a6 4a 3b 8f 1d 0d be 1c c2 27 bf cc 2d a9 3d
       0.0030921793 -0.13780807 -0.6553056 0.08260688
000230 82 98 43 3f 3d 73 9f 3e db dc 0c bf 76 9e 09 bf
       0.76404583 0.31142607 -0.550245 -0.5375742
000240 00 e4 20 3e 4e 8b 0e 3f 75 89 bd be a2 35 71 be
       0.15711975 0.5568131 -0.37018934 -0.23555616
000250 fb 1c 50 3f 1b 19 01 3f 62 ea 97 3e 53 dd 82 bf
       0.8129422 0.5042893 0.29671007 -1.0223793
000260 72 c3 0b 3f 4c cc 0a bf a7 f7 f4 3e 19 1e ce 3d
       0.545951 -0.5421798 0.47845194 0.100643344
000270 0c c1 25 bf d8 cb 87 3e 6d bb cc bd 6e 87 54 3e
       -0.6474769 0.26522708 -0.09996686 0.20754787
000280 54 21 31 bc cd 70 6c bd 56 b9 94 be 82 fa 69 3e
       -0.010811169 -0.057724763 -0.2904765 0.22849467
000290 63 7f 32 bf 6a a7 ef 3d 20 c5 24 be 48 87 d8 3d
       -0.69725627 0.117018536 -0.16090822 0.10572678
0002a0 f6 db db bd 12 5f 1c 3e 0b f0 d8 be 8c 9a 53 be
       -0.107353136 0.15270641 -0.42370638 -0.20664424
0002b0 a5 1d 01 3e df 26 08 3f 00 29 f2 3d 0e dc 24 3f
       0.12608965 0.5318431 0.118242264 0.64398277
0002c0 4a 6e b1 3e cb 36 93 be fa 4e 1e 3f 80 59 0c bf
       0.34654456 -0.2875274 0.6183926 -0.54824066
0002d0 39 58 05 bf 60 e8 ab be 7c 0c 0a 3f 06 da 2e 3e
       -0.5208774 -0.33575726 0.539253 0.17075357
0002e0 d8 9c 05 be dc 4c 17 bf cf e8 d8 3e 92 5c c4 3e
       -0.13048112 -0.59101653 0.4236512 0.38351876
0002f0 b0 f8 f7 3c 53 2e 81 be 26 1b 44 bf 8f d2 11 bb
       0.03026995 -0.25230655 -0.76603925 -0.0022250747
000300 32 2b 50 3f 6a 76 1f bf f0 6e 56 bd a0 a8 37 3f
       0.8131591 -0.6229006 -0.052351892 0.71741676
000310 42 ce f9 be b3 0e 54 be e9 6d b6 3e b6 78 5b be
       -0.48790175 -0.20708732 0.3563073 -0.21432766
000320 f3 8c 7f be 48 f9 ad bc 9d 8c c1 bc 77 38 b4 be
       -0.24956112 -0.02123703 -0.02362662 -0.3519933
000330 46 3f 81 3d a4 1e cd be 20 1c 01 bf 48 e5 a9 be
       0.063108966 -0.4006244 -0.5043354 -0.3318274
000340 19 7b 34 3e 03 8b b3 bd 94 35 ef be 11 11 33 3f
       0.17625083 -0.08766749 -0.46720564 0.69947916
000350 14 8f af be 59 47 e4 be f9 96 66 bf 55 da 2a bf
       -0.34288847 -0.44585684 -0.90074116 -0.667394
000360 7a bf fe 3e 9b 7f 13 3f 35 bb ab 3d 7f 92 21 bd
       0.4975546 0.57616585 0.08385316 -0.03944635
000370 f5 03 f4 3e 2f 56 22 3e 45 00 1a 3f 7b 7b a5 3e
       0.4765927 0.15853189 0.6015666 0.3232077
000380 7a 5f 58 3f 2d 44 11 bd e6 3b a3 3d f2 9e c7 3d
       0.84520686 -0.035465408 0.07970409 0.09747113
000390 55 00 07 be a5 43 72 bc 55 88 18 3e 33 27 8e 3e
       -0.1318372 -0.0147866355 0.14895757 0.27764282
0003a0 2b 46 d6 3c dd 2e 0f 3e ef 92 1a bf 5b d7 39 3f
       0.026156506 0.1398272 -0.6038045 0.7259423
0003b0 83 a5 3e bf 54 09 c2 3d b0 8e 28 bf f9 91 c2 bd
       -0.744713 0.094744354 -0.65842724 -0.09500498
0003c0 15 9e e7 3d 49 1e b4 3e ae eb df 3e 69 ef 48 3e
       0.11309449 0.35179356 0.43734497 0.19622578
0003d0 a5 d0 88 be 61 0a 80 3e 69 0b 9c 3e 1e 92 00 bf
       -0.26721683 0.25007918 0.30477455 -0.5022296
0003e0 ee ce 82 be 8c 10 e4 3d a5 15 8b be 6b 62 c3 be
       -0.255485 0.111359686 -0.2716495 -0.38161024
0003f0 e1 d9 b4 3e 0d 8d 35 be 9e e2 a1 be 19 7a b7 be
       0.35322478 -0.17729588 -0.31618208 -0.3583534

fc.bias f4 [23]
000000 55 34 5e be 49 bb bd bd 5f 4e 88 3d 00 8c 82 be
       -0.2169965 -0.092642374 0.06655573 -0.25497437
000010 4d f0 1e be 83 b4 66 bc 61 d5 ba bd d0 41 b7 3d
       -0.15521355 -0.014081123 -0.0912273 0.089480996
000020 26 00 8c be 7a bf f2 3d 9b ce 2b be ec a6 5b be
       -0.27343863 0.118529275 -0.16778032 -0.21450394
000030 f4 f3 49 bd 34 2c ca bc 8c 25 ec bd 55 28 01 be
       -0.049304917 -0.02467928 -0.11530599 -0.12613042
000040 0b b0 ac 3d 3b 6e ee 3c 97 df ac 3c c4 29 52 3e
       0.08432015 0.029105296 0.02110271 0.20523745
000050 4c 4f 11 be 17 82 05 3d 84 28 92 3d
       -0.14190406 0.032594766 0.07136634
